models/trained_model.pt (torch, 976539 bytes, 10 tensors)

weight f4 [32, 1, 3, 3]
0	0x3e5db62c	0.21651524
1	0x3e4db4f9	0.20088567
2	0x3e73465c	0.23757309
3	0x3d428097	0.047485914
4	0x3ec478c1	0.38373378
5	0xbd399524	-0.045308247
6	0x3e501ee5	0.20324285
7	0x3e4275d2	0.18990257
8	0xbe38d2fb	-0.18049233
9	0x3dceca8b	0.10097226
10	0xbea6be84	-0.32567227
11	0x3e9450f3	0.2896801
12	0xbcf0b033	-0.029380893
13	0xbecbae9f	-0.39781663
14	0xbe936b5b	-0.28792843
15	0xbe566eaf	-0.2094066
16	0xbe46d502	-0.19417194
17	0xbe8a5bd1	-0.27023175
18	0x3e5d08ab	0.21585338
19	0x3e82088e	0.25397152
20	0x3ebb181b	0.3654183
21	0x3e06025e	0.1308684
22	0x3d1c8b05	0.038218517
23	0x3ebeea69	0.37288216
24	0xbe4dcb92	-0.20097187
25	0xbe595b65	-0.2122627
26	0xbe2851e9	-0.16437496
27	0x3e25f758	0.16207635
28	0x3ddab9bf	0.106799595
29	0x3ea7bf14	0.3276297
30	0x3e1a3e81	0.15062906
31	0xbe720511	-0.23634745
32	0x3db4afc0	0.08822584
33	0x3e421b3e	0.18955705
34	0xbe871eb4	-0.26390612
35	0xbebbf3b3	-0.36709365
36	0x3de056e5	0.10954074
37	0xbe5bb4e7	-0.21455728
38	0x3e32ae2b	0.17449252
39	0x3e79f7ac	0.24410886
40	0xbdf662d2	-0.12030567
41	0xbe41d69a	-0.1892952
42	0xbe67e1b9	-0.226447
43	0xbe9bf27c	-0.30458438
44	0xbe907f4e	-0.28222126
45	0x3ea8689d	0.32892314
46	0xbc61dfd6	-0.013786277
47	0x3e24e104	0.16101462
48	0xbe91402a	-0.28369266
49	0xbd93bda2	-0.07213904
50	0x3ecbe40c	0.39822423
51	0xbe886e6b	-0.26646742
52	0xbe1c86a2	-0.15285733
53	0x3ed0e3af	0.4079871
54	0x3dcac2ed	0.099004604
55	0x3e12a1e0	0.14319563
56	0x3e8ed635	0.27897802
57	0xbd071c6b	-0.032986086
58	0xbe46658a	-0.19374672
59	0xbdd02820	-0.10163903
60	0x3eaa41e3	0.33253393
61	0xbe7a0025	-0.24414118
62	0x3ec6f083	0.3885537
63	0x3d329057	0.043594684
64	0x3ed01780	0.4064293
65	0x3ea431d2	0.3206926
66	0x3e1b8de7	0.1519085
67	0xbe3baf34	-0.18328553
68	0x3ec5f4db	0.38663372
69	0x3db297b0	0.08720338
70	0xbe0d39da	-0.137916
71	0x3ea6fe5d	0.3261594
72	0x3dc89a8d	0.09795103
73	0x3ec2ef03	0.38072976
74	0xbdb59eef	-0.08868205
75	0xbdfc6f78	-0.123259485
76	0xbe52052f	-0.2050979
77	0xbec53b49	-0.38521793
78	0x3e0ca66f	0.13735364
79	0xbdb917ac	-0.09037718
80	0xbe06e0e1	-0.13171722
81	0xbe1b4ef4	-0.15166837
82	0x3eac68a9	0.336736
83	0x3ddf15c4	0.10892823
84	0x3ea9b1fd	0.33143607
85	0x3e813d80	0.25242233
86	0xbe6739b1	-0.22580601
87	0xbe84d25a	-0.25941736
88	0xbeaa779f	-0.3329439
89	0xbe886695	-0.26640764
90	0xbe7e0960	-0.24808264
91	0x3ea5b1ec	0.32362306
92	0x3ed05565	0.4069015
93	0xbd7321b3	-0.05935831
94	0xbea113d1	-0.3146043
95	0xbe640b41	-0.22269918
96	0x3e34cf05	0.17657097
97	0xbeb240d0	-0.34815073
98	0xbe7663d9	-0.24061526
99	0x3e88c720	0.2671442
100	0x3e718ec1	0.23589613
101	0x3caf73c3	0.021417504
102	0xbe2dbbe3	-0.16966204
103	0x3d08a061	0.033356074
104	0x3ecc9176	0.39954728
105	0x3dbf2326	0.09332876
106	0xbe7386de	-0.23781916
107	0xbe286497	-0.16444622
108	0x3e65c3df	0.22438
109	0xbe912a56	-0.28352612
110	0xbd9052c8	-0.07047039
111	0xbb9a58d8	-0.004710298
112	0x3cd6fbfd	0.026243204
113	0xbd7ccaa1	-0.06171668
114	0x3ec1801d	0.37793055
115	0x3ece2b18	0.40267253
116	0xbeaab61e	-0.3334207
117	0xbdfe91d7	-0.124301605
118	0x3d886329	0.06659538
119	0x3eadeeeb	0.33971342
120	0xbed7ebec	-0.42172182
121	0xbe4d4f3a	-0.20049754
122	0x3c618a9d	0.013765958
123	0x3e988425	0.29788318
124	0xbe996fd1	-0.29968122
125	0x3ea5ea27	0.32405207
126	0x3e79ee5e	0.24407336
127	0x3eb99aa1	0.36250785
128	0x3dd6645f	0.10468363
129	0xbdc326fc	-0.0952892
130	0x3e1a2455	0.15052922
131	0xbe836f44	-0.25670826
132	0xbe2790a4	-0.1636377
133	0x3e4eacee	0.20183155
134	0x3d7fd1b6	0.062455855
135	0xbe063c6b	-0.13108985
136	0xbebd8d84	-0.3702203
137	0xbdeb2b1b	-0.11482831
138	0x3dcd7dec	0.10033783
139	0xbe056258	-0.13025796
140	0xbe38d0c7	-0.18048392
141	0x3dfb43f3	0.1226882
142	0x3ed0b529	0.40763214
143	0x3e406807	0.18789683
144	0x3e280126	0.16406688
145	0x3e936994	0.28791487
146	0x3de27445	0.11057333
147	0x3ed12cf1	0.408546
148	0x3d06d57c	0.03291844
149	0x3e2e6923	0.17032294
150	0x3e1f7757	0.15572868
151	0xbdd32526	-0.1030982
152	0x3ed1764d	0.4091057
153	0xbeace9eb	-0.33772215
154	0xbe4b632f	-0.19862054
155	0x3ec83b16	0.3910758
156	0xbb373439	-0.002795471
157	0xbe950cac	-0.2911123
158	0xbdb2611d	-0.08709929
159	0xbe110dfe	-0.14165494
160	0xbebaeb23	-0.3650752
161	0x3eaf8d37	0.34287426
162	0xbecf1b49	-0.40450504
163	0xbecb810a	-0.39746886
164	0xbe2c8e38	-0.16851127
165	0xbc41c05b	-0.011825646
166	0x3aed6424	0.0018111509
167	0xbea043a2	-0.313016
168	0x3e6af3d7	0.2294458
169	0x3e17313e	0.14764878
170	0x3e773b6c	0.24143761
171	0x3ebdcf29	0.37072113
172	0xbe68dd8d	-0.22740765
173	0x3e7e0fe8	0.24810755
174	0xbe59bf1e	-0.21264312
175	0xbd49c95c	-0.049264297
176	0x3e9e2904	0.30890667
177	0x3dfea2d5	0.124334015
178	0xbecf274d	-0.40459672
179	0xbdc3f424	-0.095680505
180	0xbe80e832	-0.2517715
181	0xbea68515	-0.3252341
182	0x3e64a1dc	0.2232737
183	0xbe9c5296	-0.30531758
184	0xbe149b81	-0.14512445
185	0xbeb4ea4f	-0.35335013
186	0xbe67b688	-0.22628224
187	0x3e83281c	0.2561654
188	0xbeb6a1b2	-0.3567024
189	0x3e2e30ba	0.17010775
190	0xbea9a63a	-0.33134633
191	0xbd83b6b8	-0.06431335
192	0xbe82e20b	-0.25563082
193	0x3e9f03ba	0.3105753
194	0x3e5e7f53	0.21728258
195	0x3ec85204	0.39125073
196	0x3eb3e173	0.35132942
197	0x3cbd2c04	0.023092277
198	0x3e812076	0.25220078
199	0x3c6c6625	0.01442865
200	0x3eceb90e	0.4037556
201	0x3e5ee7a1	0.21768047
202	0x3ecb5259	0.39711264
203	0x3d35050a	0.04419426
204	0xbe140556	-0.1445516
205	0xbea11f1d	-0.3146905
206	0xbe5589bf	-0.20853327
207	0xbe9003f8	-0.28128028
208	0xbdd7fed4	-0.105466515
209	0xbc8abbfd	-0.016935343
210	0x3e34a3f7	0.17640673
211	0x3ed40e6a	0.41417247
212	0x3e96bdee	0.2944178
213	0xbda4950b	-0.0803624
214	0x3dabe65d	0.08393548
215	0xbddacf3d	-0.10684059
216	0x3e76bb63	0.2409492
217	0x3ea9b623	0.33146772
218	0xbe9f494a	-0.31110603
219	0xbce211dc	-0.027596407
220	0x3e21def2	0.15807703
221	0x3ec7c4a2	0.39017206
222	0x3e37e812	0.17959622
223	0xba045bc6	-0.00050490757
224	0xbdbd4c72	-0.092430964
225	0xbe46b73f	-0.1940584
226	0x3e583499	0.21113814
227	0x3e82fb3a	0.25582296
228	0x3eaceb79	0.337734
229	0xbe2c4d5f	-0.1682639
230	0x3ecd0470	0.40042448
231	0x3d407578	0.046987027
232	0x3ea0d1c3	0.31410035
233	0x3ec492c1	0.38393214
234	0x3da8e578	0.08246893
235	0x3ec62593	0.38700542
236	0x3e0db49b	0.13838427
237	0xbe23075d	-0.15920778
238	0x3e898b54	0.2686411
239	0x3e3efbec	0.18650788
240	0x3e0070af	0.12542985
241	0x3ed2b990	0.41157198
242	0xbe253ba1	-0.16136028
243	0xbea262f2	-0.31716114
244	0xbde4c2b8	-0.11169952
245	0x3e7fd914	0.24985152
246	0xbe953fdf	-0.29150292
247	0xbea71f13	-0.32640895
248	0x3cefb9a0	0.029263318
249	0x3e8245e9	0.25443962
250	0xbe7fe81c	-0.24990886
251	0xbe2951af	-0.16535066
252	0xbd881809	-0.06645209
253	0x3ec1c88f	0.37848327
254	0x3eaaee44	0.33384907
255	0x3eb8177e	0.35955423

bias f4 [32]
0	0x3dfe9184	0.12430099
1	0xbcffe291	-0.031235965
2	0x3da26970	0.07930267
3	0xbdfdc44d	-0.12390957
4	0xbe00a180	-0.12561607
5	0x3e314313	0.17310743
6	0xbc468616	-0.0121169295
7	0xbdedf4ec	-0.11618981
8	0x3e0f1131	0.13971402
9	0xbcc7ed50	-0.024405152
10	0x3e8a0bc2	0.26962095
11	0x3e685709	0.22689451
12	0xbdbe5bf8	-0.092948854
13	0x3d064844	0.03278376
14	0x3d94b9f5	0.07262031
15	0x3e83d6bc	0.25749767
16	0x3d9606c1	0.07325507
17	0xbe25c0f1	-0.16186883
18	0x3e7f410d	0.24927159
19	0xbe3ccd27	-0.18437634
20	0xbe44cbe6	-0.19218406
21	0xbe7cf754	-0.24703723
22	0xbe50aa37	-0.20377432
23	0xbe6cc583	-0.2312222
24	0x3cf74b9e	0.030187424
25	0xbd3594f6	-0.044331513
26	0x3e5acd01	0.21367265
27	0x3d48a67d	0.0489869
28	0xbe0fdf6a	-0.1405007
29	0x3e18dfde	0.14929149
30	0x3e93ecd5	0.28891626
31	0xbdad7679	-0.084698625

weight f4 [64, 32, 3, 3]
0	0xbc9b3bee	-0.018949475
1	0xbdaf161c	-0.08549139
2	0x3cfdc8f5	0.030979613
3	0xbc4d329e	-0.012524275
4	0xbb9620df	-0.0045815553
5	0xbbc93874	-0.006140763
6	0x3d968bc9	0.07350881
7	0x3cddde69	0.027083592
8	0x3be1b3ba	0.00688788
9	0x3c3dbe6c	0.011581045
10	0xbd17db9d	-0.037074674
11	0xbca90ab0	-0.020634979
12	0x3ce152f7	0.027505381
13	0xbd168cf0	-0.036755502
14	0xbc9aebb9	-0.01891123
15	0xbddac705	-0.10682491
16	0xbbea9817	-0.007159244
17	0xbd498524	-0.04919924
18	0x3d875ecb	0.06609877
19	0x3d1f2483	0.03885318
20	0xba8f3ce0	-0.0010928176
21	0xbdd8ee40	-0.105923176
22	0xbd80337c	-0.0625982
23	0xbd70046b	-0.058597963
24	0x3d8b063e	0.067883
25	0x3cab0033	0.020874118
26	0x3d8ecb98	0.06972426
27	0x3bb934b6	0.0056520356
28	0x3d5f4e40	0.054517984
29	0x3c604928	0.013689317
30	0xbc2f70de	-0.010708062
31	0xbdac55af	-0.0841478
32	0x3c42d565	0.0118916975
33	0xbbe0914f	-0.0068532596
34	0x3c192d2c	0.009349149
35	0x3d16ba17	0.036798563
36	0x3d4730cc	0.04863052
37	0x3c7b0d48	0.015322991
38	0x3c41eafe	0.011835812
39	0xbc6c716c	-0.014431339
40	0xbd54ed58	-0.05198416
41	0xbd2832e2	-0.04106415
42	0xbd7a3fb3	-0.061095905
43	0x3b3c8a74	0.0028769048
44	0xbd5a6226	-0.053316258
45	0xbc9a8561	-0.018862428
46	0x3d0d66f3	0.03452201
47	0x3c9bd4d6	0.019022387
48	0xbd9a9c71	-0.0754937
49	0xbd5977ed	-0.053092886
50	0xbcb8a9c0	-0.02254188
51	0xbc97053a	-0.01843511
52	0x3cbc520c	0.022988342
53	0xbc8b11d5	-0.016976276
54	0x3be33456	0.006933729
55	0x3c8dfd6e	0.017332759
56	0x3d615e7b	0.055021744
57	0x3d886680	0.06660175
58	0xbbae3f40	-0.0053175986
59	0x3d6fca26	0.058542393
60	0x3c9e3c56	0.01931588
61	0xbae37eb9	-0.0017356492
62	0x3dd84e68	0.1056183
63	0xbc13bb9d	-0.009016898
64	0xbd207021	-0.039169434
65	0x3d87f59a	0.06638642
66	0xbd14ac92	-0.03629739
67	0xbb2b636a	-0.0026151785
68	0x3d4c7ede	0.049925677
69	0xbc225b7f	-0.00990951
70	0x3da0787a	0.07835479
71	0x3db86bac	0.09004912
72	0x3c8673f0	0.016412705
73	0x3a41b8b6	0.000738989
74	0x3c612b74	0.01374327
75	0x3d861979	0.06547827
76	0x3cdb1f77	0.026748402
77	0x3c005172	0.007831918
78	0x3cd13d69	0.025541978
79	0xb9568ea8	-0.00020461774
80	0xbbcc0b91	-0.0062269648
81	0x3dfabf99	0.122435756
82	0x3d860d76	0.06545536
83	0xbc14d10c	-0.009083044
84	0x3c9dac54	0.019247212
85	0xbc597f66	-0.013275003
86	0x3c818cc7	0.015814198
87	0x3de2fc83	0.11083319
88	0x3de4392c	0.11143717
89	0x3dd2de88	0.10296351
90	0x3d938979	0.07203955
91	0x3ce6de65	0.028182218
92	0xbd3d14ba	-0.046162345
93	0x3d80b508	0.06284529
94	0xbd00753a	-0.031361796
95	0xbd5ee1a8	-0.05441442
96	0xbc46624b	-0.012108396
97	0x3cbbd172	0.02292702
98	0x3d815436	0.0631489
99	0xbb8c7b69	-0.0042871726
100	0xbcb3910e	-0.021919753
101	0xbd41df55	-0.047332127
102	0x3c2302e7	0.009949422
103	0xbde2bdb3	-0.110713385
104	0x3d292aec	0.0413007
105	0xbc8ac1b2	-0.016938064
106	0x3cacf701	0.021113874
107	0x38b8ac71	8.8059234e-05
108	0xbd9bf386	-0.07614808
109	0xbd1efd05	-0.038815517
110	0xbcba36e2	-0.022731248
111	0x3d812241	0.063053615
112	0x3d33b933	0.04387779
113	0x3d8da2f7	0.06915849
114	0x3db1a184	0.08673385
115	0x3d4cba69	0.049982462
116	0x3bf72923	0.0075427457
117	0xbd58d21b	-0.052934747
118	0x3cc57cc9	0.024107354
119	0x3dae545e	0.085121855
120	0x3db601b2	0.08887042
121	0x3dfcd0ee	0.12344538
122	0x3db3a4f8	0.087717
123	0x3d5e60ff	0.05429172
124	0xbc9ea7a3	-0.019367045
125	0xbcafa26d	-0.021439755
126	0x3ccfd2ce	0.025369074
127	0x3ca72f88	0.020408407
128	0xbd05e67d	-0.032690514
129	0xbd0d34cf	-0.03447419
130	0xbd5bcb20	-0.053660512
131	0xbcec9413	-0.028879201
132	0x3ca088df	0.019596515
133	0x3c0227e5	0.007944082
134	0x3d89f331	0.06735838
135	0xbd4b0b8e	-0.049571566
136	0xbcd8df6e	-0.026473727
137	0xbc8e3141	-0.01735747
138	0x3db45e94	0.08807102
139	0x3d8a7ef0	0.06762493
140	0x3d1c60ce	0.038178258
141	0x3d83367e	0.06406878
142	0x3dd58237	0.10425227
143	0xbccd3b6c	-0.025052749
144	0xbc894d7e	-0.016760584
145	0xbda94bda	-0.08266421
146	0xbd69dde2	-0.05709637
147	0x3d057639	0.03258345
148	0xbcf0727f	-0.029351471
149	0x3d13f360	0.036120772
150	0x3d51e288	0.051241428
151	0x3d3ef1e4	0.046617404
152	0x3cfd35f4	0.030909516
153	0x3cb937e9	0.022609668
154	0x3d5302f3	0.051516484
155	0x3c9466bd	0.018115396
156	0x3d917733	0.071028136
157	0x3d2441a3	0.04010166
158	0xbd93489b	-0.07191583
159	0xbdbf4d85	-0.093409576
160	0xbce3ef49	-0.027824061
161	0xbd161bff	-0.036647793
162	0x3b2c4dd4	0.0026291506
163	0x39cf83b5	0.00039580246
164	0x3ca56547	0.020189894
165	0x3d842e3e	0.064541325
166	0x3dea45cc	0.11439094
167	0x3d8bef92	0.06832804
168	0x3de2ec55	0.11080233
169	0x3cffd428	0.031229094
170	0xbc201c34	-0.009772349
171	0xbb9cc3ee	-0.004784099
172	0x3d43a5dc	0.047765598
173	0x3cff9dbd	0.031203145
174	0xbd7652db	-0.06013761
175	0x3cde1e09	0.027113931
176	0xbc37de1b	-0.011222388
177	0x3dc4bbe5	0.096061505
178	0xbb880f78	-0.0041522346
179	0x3d0780cc	0.033081815
180	0x3cbb8884	0.022892244
181	0xbd17cc59	-0.037060115
182	0x3d29cec1	0.04145694
183	0x39d874c0	0.00041285716
184	0xbd2d6eda	-0.042342044
185	0xbc62e4b7	-0.013848475
186	0xbd009fbb	-0.03140233
187	0x3bf012d0	0.0073264614
188	0xbcaeb7e4	-0.02132792
189	0xbd5d9247	-0.05409458
190	0xbca7b4ae	-0.020471897
191	0x3cc1af3f	0.023643134
192	0x3d180bcc	0.037120625
193	0x3dd930f6	0.10605042
194	0x3cb55616	0.022135776
195	0x3e0605ac	0.13088101
196	0x3d2a0337	0.041506972
197	0x3de0c92e	0.10975872
198	0x3dbcfbee	0.09227739
199	0x3d76d242	0.06025911
200	0x3cbe9985	0.023266563
201	0xbddbd704	-0.1073437
202	0xbd8ec034	-0.069702536
203	0x3bf5136a	0.007479121
204	0x3de0a35e	0.1096866
205	0x3df03626	0.11729078
206	0x3d982d9f	0.074305765
207	0xbcfdfc62	-0.031004135
208	0xbdea04d5	-0.11426703
209	0xbc83ec30	-0.016103834
210	0xbd829d7a	-0.063776925
211	0x3d9af2c5	0.07565836
212	0x3ce6913d	0.028145427
213	0x3dd75f34	0.105162054
214	0x3daf457b	0.08558174
215	0x3dc0c38e	0.09412299
216	0xbd1de9fd	-0.038553227
217	0xbc97a976	-0.018513422
218	0xbd770668	-0.060308844
219	0x3cb9f707	0.0227008
220	0xbdc26f85	-0.09493927
221	0xbceb6d3a	-0.028738607
222	0x3d22ce4d	0.039747525
223	0x3d8f2a3a	0.06990476
224	0x3c9adfeb	0.0189056
225	0xbdd753dd	-0.105140425
226	0xbd8b1d6d	-0.06792722
227	0x3d69b77a	0.057059743
228	0x3d1aa02c	0.037750408
229	0xbcdf5fa2	-0.027267281
230	0x3d8625cc	0.06550178
231	0x3dc88f01	0.09792901
232	0x3deb6629	0.11494095
233	0x3d9ac1f9	0.075565286
234	0xbd1010fd	-0.03517245
235	0xbdbfb4e6	-0.093606755
236	0xbc8f22e5	-0.017472694
237	0xbd05c2dc	-0.032656536
238	0xbca0db71	-0.019635888
239	0xbc83791f	-0.016048966
240	0x3d890975	0.06691257
241	0x3d447189	0.047959838
242	0x3da39756	0.079878494
243	0x3c38a46e	0.011269672
244	0xbbd6b7e5	-0.0065526837
245	0x3d33bbc4	0.04388024
246	0x3b2a0288	0.002594145
247	0xbd9adb65	-0.075613774
248	0xbd5179fc	-0.051141724
249	0x3aa693bf	0.0012708827
250	0xbd81bbe4	-0.063346654
251	0x3ca58d50	0.020208985
252	0x3da89ef8	0.08233446
253	0x3cb6fa2b	0.022336086
254	0xbc4e7bf4	-0.012602795
255	0xbd0f8075	-0.035034616

bias f4 [64]
0	0xbd2b74d3	-0.04185946
1	0x3cfdefb5	0.03099809
2	0x3c843a06	0.016140949
3	0xbd87dd3f	-0.06633996
4	0xbd7aee22	-0.061262257
5	0x3cf838d4	0.030300535
6	0x3cb8296b	0.022480687
7	0x3c437c48	0.011931486
8	0x3bcd2ac8	0.0062612034
9	0x3b485964	0.003057086
10	0x3d3d1039	0.04615805
11	0xbcdca226	-0.026932787
12	0xbd058cd7	-0.03260502
13	0x3a80cbbf	0.0009826346
14	0x3c1a9538	0.009434991
15	0xbd6e883a	-0.058235385
16	0xbd077f56	-0.03308042
17	0xbcd45e6d	-0.025923932
18	0xbd41af79	-0.047286484
19	0xbcaa587d	-0.020794148
20	0xbd2b60c4	-0.04184033
21	0xbbd97b2e	-0.0066369986
22	0x3cf85d0a	0.030317802
23	0x3ce0b97d	0.027432198
24	0x3bd61534	0.0065332893
25	0xbabdd552	-0.001448313
26	0xbd7312bf	-0.05934405
27	0x3c3b7982	0.011442544
28	0x3d7d1499	0.06178722
29	0x3d35d5e4	0.044393435
30	0x3cbf28ac	0.023334824
31	0x3d76ad06	0.0602236
32	0x3d3bcf15	0.045851786
33	0x3c272333	0.010201263
34	0x3dcc02be	0.099614605
35	0x3d1eff8d	0.03881793
36	0x3d5588b2	0.052132316
37	0xbd2bac4a	-0.041912355
38	0x3cac2833	0.021015262
39	0x3cddd24a	0.027077813
40	0xbbc4b811	-0.0060033877
41	0x3d50c799	0.0509716
42	0x3ca2c998	0.019871518
43	0xbb4c0d41	-0.003113583
44	0xbd3033bd	-0.04301809
45	0x3d3469b9	0.044046137
46	0x3cb761c3	0.022385484
47	0xbd60c398	-0.054874033
48	0x3c4807b9	0.0122088725
49	0x3d014fff	0.03157043
50	0x3d678b3d	0.056529272
51	0xbc9d462b	-0.019198498
52	0x3a813e92	0.0009860566
53	0xbc73ed6c	-0.014888149
54	0x3c3bb96e	0.011457784
55	0xbcbb4e87	-0.022864593
56	0x3b3c7707	0.002875747
57	0xbd5436d7	-0.05181011
58	0xbc3f5b71	-0.011679516
59	0xbb42a490	-0.0029700138
60	0xbd73e037	-0.05954
61	0x3d1794f0	0.037007272
62	0x3c9055ea	0.017619092
63	0xbce7c739	-0.028293239

weight f4 [128, 64, 3, 3]
0	0xbbbf3ad8	-0.005835872
1	0xbc8f1ce2	-0.017469827
2	0x3c7b4bd3	0.015337902
3	0xbbd4ab48	-0.006490145
4	0x3d112728	0.035437733
5	0x3d6a9e9a	0.05728016
6	0xbc876fc6	-0.01653279
7	0x3b006a0a	0.0019594454
8	0x3cb047d2	0.021518622
9	0x3d528e98	0.05140552
10	0x3d1ae1dd	0.037813056
11	0xbd0ad195	-0.03389128
12	0x3c9704fd	0.018434996
13	0xbc83ed89	-0.016104477
14	0x3cc87014	0.024467506
15	0x3d2ba961	0.04190958
16	0x3d2681b2	0.04065103
17	0xbd1b5980	-0.03792715
18	0x3ca3bf5d	0.01998871
19	0xbc0d6ca9	-0.008631864
20	0xbbaaa2ca	-0.0052073942
21	0xbae0a49f	-0.0017138905
22	0xbcf35837	-0.02970515
23	0xbb96b387	-0.004599038
24	0x3d071a73	0.03298421
25	0xbb8934c5	-0.004187199
26	0x3d601a0c	0.05471234
27	0xbd3a5adc	-0.045496807
28	0xbcdf7149	-0.027275698
29	0x3b9d08c8	0.0047923066
30	0x3ca5981e	0.020214137
31	0x3dbf6a75	0.09346477
32	0x3d3cd42e	0.046100788
33	0x3cc88b71	0.024480553
34	0x3aa064a3	0.0012237023
35	0xbc0e3a70	-0.008680925
36	0xbcc2c252	-0.0237743
37	0x3b35fdd3	0.00277697
38	0x3d10d39d	0.03535806
39	0xbcc5d8f5	-0.024151305
40	0x3d29c19c	0.041444406
41	0x3d717b20	0.05895531
42	0x3ca0adfa	0.019614208
43	0xbc6cf86f	-0.014463528
44	0x3d9d6434	0.07685128
45	0xbcf28a5b	-0.029606989
46	0x3ca30917	0.019901795
47	0x3c648ab9	0.01394909
48	0xbc8d0a87	-0.017216934
49	0x3d8f4068	0.069947064
50	0x3cce7102	0.02520037
51	0xbc310e01	-0.010806561
52	0x3a809d98	0.0009812592
53	0x3caabbe8	0.020841554
54	0xbd09ed47	-0.03367355
55	0xbcac86bf	-0.021060346
56	0x3d00ca2a	0.0314428
57	0xbc589c09	-0.013220795
58	0x3d6c89fd	0.057748783
59	0xbbed5f2c	-0.0072440114
60	0x3cdfd714	0.027324237
61	0xbd0e70bf	-0.03477549
62	0xbc02f8fb	-0.007993932
63	0xbc818676	-0.015811186
64	0x3d6520cc	0.05593948
65	0x3b840100	0.0040284395
66	0x3b87d29d	0.00414498
67	0x3bdd4a41	0.0067532365
68	0xbc61fe21	-0.013793499
69	0xbaf15c8d	-0.0018414423
70	0x3d038bdb	0.0321158
71	0x3d55246c	0.052036688
72	0x3c28c2b5	0.010300328
73	0xbd263c66	-0.040584944
74	0x3cf6eee4	0.030143209
75	0x3d1d6181	0.038423065
76	0x3d1e9fa9	0.038726483
77	0xb7ad0261	-2.0624315e-05
78	0x3d179665	0.03700866
79	0x3c62721d	0.013821152
80	0x3af4ad48	0.0018667364
81	0x3bad5249	0.00528935
82	0xbc9c5a03	-0.01908589
83	0x3cfe1980	0.031018019
84	0xbc764fce	-0.015033675
85	0xbd57eae9	-0.052714262
86	0x3c79d9fc	0.015249725
87	0xbd39470d	-0.045233775
88	0x3d2b3e8c	0.041807696
89	0x3c4fb3b9	0.012677127
90	0xbb100a8b	-0.002197894
91	0x3cf25e82	0.02958608
92	0xba60aff4	-0.0008571141
93	0x3ac19d6e	0.0014771649
94	0xbd1ecf90	-0.038772166
95	0x3ccbc247	0.024872912
96	0xbd2d6c9d	-0.04233991
97	0xbc591438	-0.013249449
98	0xbb1c0f96	-0.0023813
99	0xbcedb78d	-0.029018188
100	0xbd0af159	-0.033921573
101	0xbcfa3d05	-0.030546675
102	0xbc9d10fa	-0.019173134
103	0x3ce37ec3	0.027770406
104	0x3d50b680	0.050955296
105	0x3d43428f	0.047670897
106	0xb9b448d6	-0.00034386542
107	0x3d348990	0.044076502
108	0xbce6e4e8	-0.028185323
109	0xbb8605ef	-0.004090063
110	0xbd10c03f	-0.03533959
111	0xbc8875fd	-0.016657824
112	0xbca2a601	-0.019854547
113	0xbb3abaa5	-0.0028492596
114	0x3d1277c3	0.035758745
115	0xbcddd33f	-0.027078269
116	0x3ca5b2bc	0.020226829
117	0x3cc25abe	0.02372491
118	0xbd680085	-0.05664112
119	0x3be1ccae	0.006890855
120	0xbd32c666	-0.04364624
121	0xbca32cbb	-0.01991879
122	0x3b01d3a8	0.0019809995
123	0x3d0b226c	0.033968374
124	0x3d6d234d	0.057894994
125	0x3ca869db	0.020558288
126	0xbcf89ec8	-0.03034915
127	0x3bf191ae	0.0073721027
128	0x3d180116	0.03711041
129	0xbd1621be	-0.036653273
130	0xbcf953cb	-0.030435463
131	0x3c04f326	0.008114612
132	0x3b7a17e0	0.0038161203
133	0xba960bbe	-0.0011447591
134	0x3d29aec7	0.041426446
135	0x3cf99edf	0.030471263
136	0x3c888a41	0.016667487
137	0x3c7fef7c	0.015621062
138	0xbcc08837	-0.023502452
139	0xbc8659c5	-0.016400227
140	0x3d5d5cb0	0.05404347
141	0xbbcd52f3	-0.006265992
142	0x3c0070af	0.007839366
143	0x3cea27a9	0.028583365
144	0x3c9695c5	0.018381963
145	0xbc9c929b	-0.019112876
146	0xbc09604a	-0.0083847735
147	0x3cac2e2d	0.021018112
148	0xbd320158	-0.043458313
149	0xbd072d19	-0.033001993
150	0x3d075d52	0.03304798
151	0xbd968f1f	-0.07351517
152	0xbd355aa4	-0.044275895
153	0xbd248fb0	-0.040176094
154	0xbdc0d6c2	-0.09415962
155	0x3ca02000	0.019546509
156	0x3bc2f892	0.005950042
157	0xbd6202a5	-0.055178303
158	0xbd76ef2e	-0.060286693
159	0xbcd27606	-0.025691044
160	0xbd974ae8	-0.07387334
161	0xbc44a514	-0.012002248
162	0xba715f20	-0.0009207595
163	0x3a7a42e9	0.00095467136
164	0x3c4b8c2f	0.012423559
165	0x3c4a6c0c	0.012354862
166	0x3c73d18d	0.014881504
167	0x3cc3fb01	0.023923399
168	0x3d1a80bd	0.03772043
169	0xbc77ec74	-0.015132058
170	0x3d029901	0.031884197
171	0xbc962b87	-0.018331302
172	0xbd3e4d7e	-0.04646062
173	0x3cbb05c1	0.022829892
174	0x3d4e634b	0.050387662
175	0x3d84a17d	0.06476114
176	0x3d759464	0.05995597
177	0x3cbe49ee	0.023228612
178	0x3d03d3cf	0.03218442
179	0xbc8dc0a0	-0.017303765
180	0xbd1a2b9f	-0.037639257
181	0xbd337a7a	-0.043817975
182	0x3c83a907	0.01607181
183	0x3bad9e5b	0.0052984185
184	0xbd433905	-0.0476618
185	0xbd6060ed	-0.054779936
186	0xbd2e13c1	-0.042499308
187	0xbd9f0ead	-0.07766471
188	0xbbe4b8b7	-0.0069800275
189	0x3cab1441	0.020883681
190	0x3c80411c	0.015656047
191	0xbc930632	-0.01794729
192	0x3cd0fb63	0.025510496
193	0xbcb27cce	-0.021788027
194	0xbd1458d8	-0.03621754
195	0x3c70cf8b	0.01469792
196	0xbd28454e	-0.04108172
197	0x3c587b16	0.01321294
198	0xbcf78e2d	-0.030219162
199	0xbd3d4a0d	-0.0462132
200	0x3a846827	0.0010101841
201	0xba775867	-0.0009435475
202	0xbd06f17a	-0.032945134
203	0xbc08d3f1	-0.008351312
204	0xbcda3ba7	-0.026639773
205	0x3bfcebb7	0.007718529
206	0xbc599952	-0.013281183
207	0xbcdd485d	-0.027012045
208	0xbd2b46ac	-0.041815445
209	0x3baea944	0.0053302366
210	0xbcb19183	-0.02167583
211	0x3d3d2d0d	0.046185542
212	0x3d19695c	0.037453994
213	0x3d14df30	0.03634566
214	0x3d2681b9	0.040651057
215	0xbcaeafd6	-0.02132408
216	0xbc9fe8e8	-0.019520238
217	0xbd1d0cdf	-0.038342353
218	0x3c224c44	0.009905878
219	0xbca4c20d	-0.020112062
220	0xbd811cf0	-0.063043475
221	0xbdb28b19	-0.08717937
222	0xbc829b28	-0.015943125
223	0xbcf91ce4	-0.030409284
224	0xbc83a1a7	-0.016068293
225	0x3cfa2566	0.030535411
226	0x3b47c720	0.0030483678
227	0x3ba63ad0	0.005072929
228	0x3c08c329	0.008347311
229	0x3d677f16	0.056517683
230	0x3d83988b	0.0642558
231	0xbcc53e93	-0.02407769
232	0xbc86a17a	-0.01643442
233	0xbc8a9883	-0.016918426
234	0xbd2315bc	-0.03981565
235	0xbc463398	-0.012097262
236	0xbb9bf27f	-0.0047591324
237	0xbd24ade8	-0.040204912
238	0xbcd61958	-0.026135132
239	0xbd110620	-0.035406232
240	0x3d328053	0.04357941
241	0xbd1e115c	-0.038590774
242	0xbcb2c9d6	-0.021824758
243	0x3cf9cd38	0.030493364
244	0x3cfb0262	0.030640785
245	0x3cc64ae9	0.024205642
246	0x3ca6338f	0.020288257
247	0xbd6d9301	-0.058001522
248	0xbd2d2cfa	-0.04227922
249	0x3c8500e0	0.016235769
250	0xbc5f6d14	-0.013636846
251	0xbcf880e2	-0.030334894
252	0xbd036aeb	-0.032084387
253	0xbb7da5d9	-0.003870359
254	0x3cdc8970	0.026921004
255	0x3b0f279a	0.0021843673

bias f4 [128]
0	0x3cd548d9	0.026035713
1	0x3cf43afa	0.029813278
2	0xbc923e79	-0.017852055
3	0x3a52c59d	0.0008040311
4	0xbc82da2f	-0.015973179
5	0x3c64b770	0.0139597505
6	0xbc2024ad	-0.009774369
7	0xbbd78955	-0.0065776506
8	0x3bed6dd3	0.007245758
9	0x3cd061b2	0.02543721
10	0x3c7a9e32	0.015296506
11	0x3b5186a6	0.0031971126
12	0x3b30be60	0.002696894
13	0xbc561d91	-0.013068573
14	0x3afe7da4	0.0019416106
15	0xbd01de80	-0.031706333
16	0x3bdc73e2	0.0067276815
17	0xbcb70365	-0.022340486
18	0xbc7bcb61	-0.0153683135
19	0x3cd49271	0.025948735
20	0xbcd563a1	-0.026048483
21	0x3d19a715	0.037512857
22	0x3ca5b095	0.020225802
23	0x3cf788c5	0.030216584
24	0xbc93ecd9	-0.018057274
25	0xbb3d80a8	-0.0028915796
26	0x3c0c2643	0.008554044
27	0xbd2059f9	-0.039148305
28	0xbaef1070	-0.0018239152
29	0xbced514c	-0.02896943
30	0x3cc15a6a	0.023602683
31	0x3ce9836e	0.028505053
32	0xbcab2bdd	-0.02089494
33	0x3ce884c8	0.028383628
34	0xbd292b52	-0.04130108
35	0xbcf1c02b	-0.029510578
36	0xbd29163e	-0.041280977
37	0x3d19aeab	0.037520092
38	0xbd79a65d	-0.060949672
39	0x3b8b097d	0.0042430745
40	0xbd2a3416	-0.04155358
41	0xbc273aea	-0.010206917
42	0xbce05aa9	-0.02738698
43	0xba94d334	-0.0011354447
44	0x3c3a0e76	0.011355987
45	0x3cdc2e56	0.026877563
46	0x3cf5714e	0.029961254
47	0xbc961707	-0.018321527
48	0xbce226c7	-0.027606381
49	0xbc9bc8ef	-0.019016711
50	0x3b648563	0.0034869544
51	0x3c043fec	0.008071881
52	0xbcd798d9	-0.026318
53	0x3d264ff3	0.04060359
54	0x3c0baee2	0.008525582
55	0xbbffe1b3	-0.007808888
56	0xbcc8fc55	-0.024534384
57	0x3baea3c1	0.0053295796
58	0xbd533846	-0.05156734
59	0x3ba96703	0.0051697507
60	0xbc6cde52	-0.014457302
61	0x3b72c17d	0.0037041598
62	0xbd052c92	-0.03251321
63	0xbd2524a7	-0.040318158
64	0x3c5aca26	0.01335386
65	0x3c871815	0.016490975
66	0xbcad8c80	-0.02118516
67	0xbc911dde	-0.017714437
68	0xbd222594	-0.03958662
69	0xbd2276aa	-0.039663948
70	0xbba1a905	-0.004933479
71	0x3c7e86c7	0.015535063
72	0x3cc94ced	0.024572814
73	0xbc5ea529	-0.013589182
74	0x3c5382f4	0.01290964
75	0x3be17ea3	0.0068815514
76	0x3b80c686	0.003929916
77	0xbc3c19c8	-0.011480756
78	0xbd480343	-0.048831236
79	0x3c70ada1	0.014689834
80	0xbd142817	-0.036171045
81	0x3cecd4e7	0.028910113
82	0x3bd68c3f	0.0065474804
83	0xba7a1a8e	-0.00095407
84	0xbce67506	-0.028131973
85	0xba955b1e	-0.0011394953
86	0xbd157b76	-0.036494695
87	0x3d400ac4	0.046885267
88	0x3bf90e01	0.0076005463
89	0xbd0d71b3	-0.03453226
90	0x3c0ac841	0.008470596
91	0xbcbe26c6	-0.023211848
92	0xbcf7b77c	-0.03023886
93	0xbca15aaf	-0.019696562
94	0x3c8a149a	0.016855527
95	0xbcffd246	-0.031228196
96	0xbc84e3ff	-0.016221998
97	0x3ce03bb1	0.027372213
98	0xbb9cc981	-0.0047847633
99	0xbba5020f	-0.005035646
100	0xbbad3a4a	-0.0052864896
101	0x3a4b8796	0.00077640393
102	0xbc92d891	-0.017925533
103	0xbd35d07c	-0.04438828
104	0xbcc68bb2	-0.024236534
105	0x3cdbe90b	0.026844522
106	0xbc6aab62	-0.014323087
107	0x3c1f2ad6	0.009714803
108	0xbcede170	-0.029038161
109	0xbae9e280	-0.0017843992
110	0x3d13e24e	0.036104493
111	0xbc7249e6	-0.014788127
112	0x3bb79211	0.0056021293
113	0xbcb48e5f	-0.022040544
114	0xbcd338bc	-0.025783889
115	0xbc9379a4	-0.018002339
116	0xbcffae59	-0.031211065
117	0xbcaa6a8a	-0.020802755
118	0xbd2f4806	-0.042793296
119	0x3bbce82e	0.0057649827
120	0x3bbc02e3	0.005737649
121	0x3d0bfcda	0.034176685
122	0x3d1e5e9d	0.03866445
123	0xbc754b52	-0.014971571
124	0xbd53d30f	-0.051714953
125	0xbcee427b	-0.029084435
126	0xbcf43559	-0.029810594
127	0x3d3cd7a7	0.0461041

weight f4 [128, 1152]
0	0x3c362c2e	0.011118932
1	0xbcaa7294	-0.020806588
2	0x3ba4c3d6	0.0050282283
3	0xbc146129	-0.009056368
4	0x3cb86ea4	0.022513695
5	0x3b5b660f	0.003347758
6	0xbbcd2e51	-0.006261625
7	0x3c7e07a7	0.015504754
8	0x3b811f0c	0.0039404687
9	0xbcf2e9a7	-0.02965243
10	0x3ca90abd	0.020635003
11	0xbce2009d	-0.027588183
12	0x3c76fd65	0.015075062
13	0xbc08cc32	-0.008349465
14	0xbb02c5fb	-0.0019954431
15	0xbb0ffa8d	-0.0021969408
16	0x3c83756c	0.016047202
17	0x3c1417fa	0.00903892
18	0xbcc54dc8	-0.02408494
19	0xbb542ead	-0.0032376454
20	0xbcd96aca	-0.026540179
21	0xbc4b1419	-0.012394928
22	0x3b085876	0.002080468
23	0xbcfa13de	-0.030527052
24	0x3d021714	0.03176029
25	0xbbd26f3b	-0.006421951
26	0xbcae249c	-0.021257691
27	0x3c9c437e	0.019075152
28	0xbccb7d52	-0.02484003
29	0xbc99d362	-0.018777553
30	0xbcfc1fd1	-0.03077689
31	0x3beea598	0.007282924
32	0x3c99e724	0.018786974
33	0x3cabd09a	0.020973492
34	0x3c968208	0.01837255
35	0xbb1b388e	-0.0023684832
36	0x3c9a1b36	0.018811803
37	0x3948072b	0.00019076157
38	0x3c616db7	0.013759068
39	0xbcbd276d	-0.023090089
40	0xbc1b366f	-0.009473427
41	0xbbf2acdc	-0.0074058603
42	0x3ca28285	0.019837627
43	0xbcca11c7	-0.02466668
44	0x3d069092	0.032852717
45	0xbc735e5a	-0.014854038
46	0xbcd181fa	-0.025574673
47	0xbd0b9b74	-0.0340838
48	0x3b51f67c	0.0032037785
49	0x3caf6b09	0.021413343
50	0xbcc67705	-0.024226675
51	0x3c4cae17	0.012492678
52	0xbc6f106f	-0.01459132
53	0xbc41b38b	-0.011822592
54	0xbb59e5d2	-0.0033248556
55	0x3b5906f1	0.003311571
56	0xbcc68630	-0.024233907
57	0xbc35efc9	-0.0111045325
58	0xbd006c72	-0.03135342
59	0xbc7db5ec	-0.015485268
60	0xbcc8ebc1	-0.024526479
61	0xbc1420c3	-0.009041014
62	0xbbef601d	-0.007305159
63	0x3c4fbd10	0.012679353
64	0xbcfe74d1	-0.031061562
65	0xbc503aac	-0.012709301
66	0xbcdd1340	-0.026986718
67	0xbcc93184	-0.024559744
68	0x3c813a2b	0.015774807
69	0x3c94bc69	0.018156247
70	0x3c9b079c	0.018924527
71	0xbc9fb8fa	-0.019497383
72	0x3cbb7479	0.022882687
73	0xbbba3ccc	-0.005683517
74	0xbb73fb14	-0.0037228512
75	0xbbbaa008	-0.0056953467
76	0xbc990aec	-0.018681966
77	0xbc80bca9	-0.01571496
78	0x3b606121	0.003423758
79	0x3c7f6411	0.0155878225
80	0xbcd35216	-0.025795978
81	0x3beb8384	0.0071873087
82	0x3c85271c	0.016254
83	0xbca6c440	-0.020357251
84	0xbcb95284	-0.022622354
85	0x3b5d0a8f	0.0033728217
86	0xbc8e94de	-0.01740497
87	0x3c4476ed	0.011991245
88	0xbc0d0bd4	-0.008608777
89	0xbcb8c109	-0.022552984
90	0xbc9ce281	-0.019150974
91	0xbcaa608b	-0.020797988
92	0x3cc79246	0.02436174
93	0x3c0c951f	0.008580475
94	0xbd04e1b4	-0.03244181
95	0x3ae1a730	0.0017215963
96	0x3ca88f49	0.020576136
97	0xbc0bd17d	-0.008533833
98	0x3b4a267c	0.0030845692
99	0x3c556407	0.013024337
100	0x3adfc0ed	0.0017071046
101	0xba70c9ae	-0.0009185326
102	0xbcb67b4f	-0.022275595
103	0xbce90594	-0.028445043
104	0xbbf52618	-0.007481348
105	0x3c9e8f9c	0.019355588
106	0x3c8a9f2e	0.016921606
107	0x3b9d0ef2	0.0047930414
108	0xbc990004	-0.018676765
109	0xbb872f7e	-0.0041255346
110	0xbbaf67c5	-0.0053529465
111	0xbc3f009d	-0.011657861
112	0xbc2073df	-0.009793251
113	0x3cd77f31	0.026305767
114	0x3c95f2ff	0.018304346
115	0xbc156755	-0.009118875
116	0xbc47112c	-0.01215009
117	0x3bb9a000	0.0056648254
118	0xbc984477	-0.018587334
119	0xbc46b50d	-0.012128127
120	0x3b8f66bd	0.004376261
121	0xbcb22241	-0.02174485
122	0xbc573eff	-0.013137578
123	0xbc8ce521	-0.0171991
124	0xbd0df734	-0.03465958
125	0xbc899987	-0.01679684
126	0x3c804042	0.01565564
127	0x3c900bd5	0.017583767
128	0x3bb6556d	0.0055643828
129	0x3c688cdc	0.01419374
130	0xbcd68b53	-0.026189482
131	0x3c3a8344	0.011383835
132	0xbc650a07	-0.0139794415
133	0xbc786806	-0.01516152
134	0x3c5ff450	0.0136690885
135	0xbc805aba	-0.015668262
136	0xbc21201b	-0.009834315
137	0x39e4644e	0.00043562282
138	0xbbb990da	-0.0056630196
139	0x3d0ca14d	0.034333516
140	0xbbe8211e	-0.007084026
141	0xbcad211b	-0.02113395
142	0xbc268b2e	-0.010165019
143	0xbc2f2065	-0.010688876
144	0xbd014dd4	-0.031568363
145	0x3c9fc2f4	0.01950214
146	0x3c3197c9	0.010839411
147	0xbc01c15f	-0.007919638
148	0xbc4bafad	-0.012432021
149	0xbcba56db	-0.022746494
150	0xbcc8782e	-0.024471369
151	0xbbafa355	-0.005360047
152	0x3c9335a1	0.017969908
153	0x3d01bb94	0.03167303
154	0xbcbe4b75	-0.02322934
155	0xbc01aae0	-0.007914275
156	0x3bae74ed	0.0053239972
157	0x3c981312	0.018563781
158	0x3ba99373	0.005175048
159	0xbca0d122	-0.019630972
160	0xbcbf0e28	-0.02332218
161	0x3c80ae97	0.01570825
162	0xbcbac969	-0.022801118
163	0xbb2bc652	-0.0026210737
164	0xbcbc3cc8	-0.022978202
165	0x3c5a7127	0.013332642
166	0xbc61eee3	-0.013789865
167	0xbcc8dc43	-0.024519091
168	0x3c2cfb86	0.010558015
169	0xbaa24655	-0.001238058
170	0x3bf5fb47	0.0075067612
171	0xbc885287	-0.016640915
172	0x3ca53971	0.020168992
173	0xbbc980bf	-0.006149381
174	0xbc627c65	-0.013823603
175	0x3c97246d	0.018449986
176	0xbcf12a46	-0.029439103
177	0x3cbb9eca	0.022902865
178	0x3ad0d1e3	0.0015931692
179	0xba4140f1	-0.0007372043
180	0xbc078704	-0.008271936
181	0xbcc441f8	-0.023957238
182	0x3aa145c2	0.0012304115
183	0x3c9de7a5	0.019275496
184	0xba526717	-0.0008026226
185	0x3cbcaddf	0.023032127
186	0x3ca19e80	0.019728899
187	0xbacb010c	-0.0015487983
188	0xbc6050de	-0.013691155
189	0xbcaa8360	-0.020814598
190	0x3c7dcf1b	0.015491272
191	0xbc57a32f	-0.013161465
192	0xbd089361	-0.033343676
193	0x3b89c53b	0.00420442
194	0xbc338c4e	-0.010958744
195	0xbcd2b372	-0.025720332
196	0xbc0a7dd5	-0.008452852
197	0x3bf54287	0.0074847373
198	0xbceea505	-0.029131422
199	0x3c10d5f1	0.00884007
200	0x3bad1268	0.005281735
201	0x3c67ca22	0.014147313
202	0x3cd93fe4	0.026519723
203	0x3cb3b602	0.021937374
204	0x3c9d6382	0.019212488
205	0xbd035234	-0.032060817
206	0x3b88d809	0.004176144
207	0x3d08ee4c	0.033430383
208	0xbbc19159	-0.0059072194
209	0xbbefeb9a	-0.007321787
210	0x3b41a00a	0.0029544854
211	0xbcea5255	-0.028603712
212	0x3c9cc3bc	0.019136302
213	0xbb65b9c4	-0.0035053352
214	0x3cb61fd6	0.022231977
215	0xbcbef42e	-0.023309793
216	0x3c34d7c5	0.011037772
217	0x3c539293	0.012913364
218	0xbcb83b64	-0.022489257
219	0xbd07f63f	-0.033193823
220	0x3b9a520c	0.004709488
221	0xbcc2447d	-0.023714298
222	0x3c714ed4	0.014728267
223	0x3c64af39	0.013957792
224	0x3b091769	0.0020918495
225	0xbc064012	-0.0081939865
226	0x3cbb3d99	0.02285652
227	0xbb7742f1	-0.003772911
228	0x3c875924	0.016521998
229	0x3cc232ec	0.023705922
230	0x3c84595e	0.016155895
231	0xbc91a80c	-0.017780326
232	0x3cb89172	0.022530291
233	0xbcf59c2f	-0.0299817
234	0x3bc16aa2	0.005902604
235	0xbcbf14d1	-0.023325356
236	0xbc3b4395	-0.011429687
237	0x3c721a80	0.014776826
238	0xbcce0567	-0.02514906
239	0xbc7bc967	-0.015367842
240	0xbb68951b	-0.0035489264
241	0x3cd7a925	0.026325772
242	0xbccdd085	-0.025123844
243	0xbc6442b0	-0.013931915
244	0xbcce0517	-0.025148911
245	0xbd072968	-0.032998472
246	0xbcf6cdf0	-0.030127496
247	0x3c17d4d2	0.009267049
248	0xbc8505c5	-0.016238103
249	0xbbc06fa7	-0.005872685
250	0xbb9535d2	-0.004553535
251	0xba5ca576	-0.00084169896
252	0xbb8046e1	-0.0039146994
253	0xbcb103f0	-0.021608323
254	0x3b6805fc	0.0035403958
255	0xbc0bb0b5	-0.008526017

bias f4 [128]
0	0x3cb0491f	0.021519242
1	0xbd02f26b	-0.03196947
2	0x3caf752c	0.021418177
3	0xbcc7d666	-0.024394225
4	0x3c552474	0.013009179
5	0x3cd7d6b1	0.02634749
6	0x3b81e271	0.0039637615
7	0xbcc89fcb	-0.024490258
8	0xbcbb724a	-0.022881646
9	0xbceaea95	-0.02867631
10	0x3b9d397c	0.0047981124
11	0x3cd4a6d5	0.025958458
12	0x399c7f3a	0.0002984943
13	0xbc317c5a	-0.01083287
14	0xbc67de13	-0.014152068
15	0x3cf27639	0.029597389
16	0xbcd52ec3	-0.026023274
17	0xbcac661d	-0.021044785
18	0x3bfc3068	0.0076962
19	0x390c0f95	0.00013357245
20	0xbc9350ee	-0.017982926
21	0x3b7cc051	0.0038566778
22	0xbd0838e3	-0.033257376
23	0xbcc5b59b	-0.024134448
24	0x3ba5e36f	0.0050625126
25	0x3c81fa56	0.01586644
26	0xbcc3e84a	-0.023914475
27	0xbc268a35	-0.010164787
28	0xbc2d2df8	-0.010570042
29	0xbca60ae9	-0.020268874
30	0x3c835038	0.016029462
31	0x3c5f448f	0.0136271855
32	0xbc7abcc3	-0.015303793
33	0xbb89311e	-0.0041867634
34	0x3c064849	0.008195945
35	0x3c6b7e25	0.014373337
36	0xbd06eac5	-0.032938737
37	0x3caa0e03	0.020758634
38	0xbbd96fb7	-0.006635632
39	0x3c739879	0.014867895
40	0x3cfdb225	0.030968735
41	0x3b253b87	0.0025212483
42	0x3c17ef86	0.009273415
43	0xbc6c244c	-0.014412951
44	0xbd0fb33d	-0.035083044
45	0xbd0ec568	-0.03485623
46	0xbc12aafb	-0.008951898
47	0xbc737037	-0.014858297
48	0x3c6b898b	0.0143760545
49	0xbd07b36a	-0.033130087
50	0x3c4efb62	0.0126331765
51	0xbc75fc7c	-0.01501381
52	0x3b6c9af7	0.0036103108
53	0xbcf2e2d9	-0.029649185
54	0xbbea934b	-0.007158672
55	0x3cf8df1b	0.030379822
56	0x3c84bdf0	0.01620385
57	0xbb788338	-0.003792001
58	0x3c8cb8b7	0.017177923
59	0x3b11cf3b	0.0022248763
60	0xbba17a88	-0.004927937
61	0x3ce2fedf	0.027709423
62	0xbcb8b632	-0.022547815
63	0xbcafa842	-0.021442536
64	0x3cd4b160	0.025963485
65	0x3c765232	0.015034245
66	0xbc9b7251	-0.018975409
67	0x3b8919e0	0.0041839927
68	0xba29b79f	-0.00064742
69	0x3b97889f	0.004624441
70	0x3cffa2c9	0.031205552
71	0xbcc0822f	-0.023499576
72	0xbb15aa87	-0.0022837238
73	0xbc21efbc	-0.009883817
74	0xbcfd65bc	-0.0309323
75	0x3b7ffb96	0.003905987
76	0x3cd5e1bd	0.026108617
77	0xbccc5279	-0.02494167
78	0xbc869705	-0.016429434
79	0xbc648aec	-0.013949137
80	0x3bf7ae08	0.007558588
81	0xbcbaccdd	-0.022802765
82	0x3c13ad19	0.009013438
83	0x3c87a010	0.016555816
84	0xbc8543b8	-0.016267642
85	0xbc4dfddc	-0.012572732
86	0xbd261aae	-0.040552787
87	0x3c3c018d	0.011474979
88	0xbce561cd	-0.028000737
89	0xbd333f70	-0.04376167
90	0x3c6bebac	0.01439945
91	0xbce99a4d	-0.02851596
92	0xbc9e9ed6	-0.019362848
93	0x3bda0d71	0.0066544344
94	0xbc7e5151	-0.015522317
95	0xbca479a7	-0.02007754
96	0xbc129692	-0.008947032
97	0x3cc021df	0.023453651
98	0x3aab3e90	0.001306491
99	0xbc6424b4	-0.013924766
100	0xbd14ec05	-0.0363579
101	0x3c9d90d4	0.019234098
102	0xbcffc7d5	-0.031223217
103	0x3a498728	0.00076876814
104	0xbb5c90c3	-0.003365562
105	0xbb2565f1	-0.0025237764
106	0x3d075feb	0.03305046
107	0xbbfe2675	-0.0077560493
108	0xbc8616fe	-0.016368385
109	0x3b8e9a83	0.0043519153
110	0xbcdd100f	-0.026985196
111	0xbc399f8f	-0.011329546
112	0x3bc09c8f	0.0058780382
113	0xbbec3eff	-0.007209658
114	0xbc8e822d	-0.017396057
115	0x3ca43f08	0.020049587
116	0xbcc8c88f	-0.024509696
117	0x3ba6efb5	0.0050944933
118	0xbca0e7ee	-0.019641843
119	0xbd15919e	-0.036515824
120	0xbc43c458	-0.0119486675
121	0x3c99cbd4	0.01877395
122	0xbcde738b	-0.027154705
123	0x3c8251a8	0.015908077
124	0xbce89c60	-0.028394878
125	0x3b6d0c14	0.003617053
126	0x3c8fa63f	0.017535327
127	0x3c757996	0.014982602

weight f4 [10, 128]
0	0x3d0b19a1	0.03395999
1	0x3d1f2b0d	0.038859416
2	0xbda27779	-0.07932944
3	0x3c9a09f5	0.018803576
4	0xbd48f613	-0.0490628
5	0xbd63a058	-0.055572838
6	0x3da89393	0.082312725
7	0xbd891dbc	-0.066951245
8	0x3d81a376	0.06330006
9	0x3d364bb5	0.044505794
10	0x3d69e43b	0.057102423
11	0x3ddc588c	0.107590765
12	0x3d944774	0.07240191
13	0xbdc69273	-0.09695902
14	0x3d803822	0.062607065
15	0x3d1d531b	0.038409334
16	0x3d91e13d	0.07123039
17	0x3b5186a1	0.0031971114
18	0x3d8ca9e6	0.06868343
19	0xbdb7266d	-0.08942876
20	0x3c11c9ed	0.0088982405
21	0x3d8c2abd	0.06844089
22	0x3d410d18	0.047131628
23	0xbd4fa8c5	-0.05069806
24	0xbde27269	-0.11056978
25	0x3ccca446	0.024980675
26	0xbdd00aff	-0.10158347
27	0xbba7a4a7	-0.0051160636
28	0xbc811ab0	-0.015759796
29	0x3d92da63	0.0717056
30	0xbc295adc	-0.010336604
31	0x3ca90a05	0.02063466
32	0x3dc45c0e	0.095878705
33	0x3d12458c	0.035710856
34	0x3cff6ab3	0.031178808
35	0xbd90bceb	-0.07067283
36	0x3a9a43e9	0.0011769506
37	0x3d9c55ab	0.07633527
38	0xbce91f45	-0.028457293
39	0x3d343016	0.04399117
40	0x3dc70b9f	0.097190134
41	0xbd2791d3	-0.040910553
42	0xbd4d57f9	-0.050132725
43	0x3da7a823	0.081863664
44	0xbcb62d40	-0.022238374
45	0xbd99a335	-0.075018324
46	0xbdfa0c33	-0.12209358
47	0xbdb50c37	-0.088402204
48	0x3d5fba64	0.054621115
49	0x3ce54c90	0.02799061
50	0xbdc9d6ed	-0.09855447
51	0xbe0657e0	-0.13119459
52	0x3d8f7851	0.070053704
53	0xbd79ebc1	-0.061015848
54	0x3c3c4be9	0.011492708
55	0x3dab7732	0.08372344
56	0xba61871f	-0.00086032035
57	0x3cacd9e4	0.021099992
58	0x3d96bda3	0.07360389
59	0xbd844cc3	-0.06459954
60	0x3d895660	0.06705928
61	0x3d985f2d	0.07440028
62	0xbdeabf2e	-0.11462246
63	0x3d4aae4c	0.04948263
64	0x3cd382e8	0.025819257
65	0x3d597ec7	0.05309942
66	0x3d98b714	0.074567944
67	0x3da01de4	0.07818201
68	0x3cb69769	0.022288995
69	0xbbf7f535	-0.0075670728
70	0xbccf5473	-0.025308823
71	0x3d1f41d6	0.038881145
72	0xbdf3e753	-0.11909356
73	0xbd4943e4	-0.04913701
74	0xbdcb4929	-0.099260636
75	0xbd6ed531	-0.058308784
76	0x3dc41034	0.09573403
77	0xbdc281bc	-0.09497401
78	0xbdd00c1b	-0.10158559
79	0xbc83814c	-0.016052864
80	0x3d4c9d85	0.04995491
81	0x3d727585	0.059194107
82	0xbb09e07a	-0.002103834
83	0x3d9ee9d2	0.077594414
84	0xbc29d693	-0.0103661
85	0x3d328f12	0.043593474
86	0xbcc6fdd8	-0.024290964
87	0xbda70933	-0.081560515
88	0xbda9176a	-0.08256419
89	0xbd143ac3	-0.036188852
90	0xbd966e49	-0.07345254
91	0xbbd620c1	-0.0065346663
92	0xbc082b8a	-0.008311162
93	0x3d5ae46d	0.0534405
94	0x3da67c53	0.08129182
95	0x3c933f29	0.017974453
96	0x3c9646f6	0.018344384
97	0x3cb543ef	0.02212712
98	0xbd57e9cc	-0.0527132
99	0xbd22db0e	-0.039759688
100	0xbd11a4f7	-0.035557713
101	0xbd2c8fb6	-0.04212924
102	0xbd8601e0	-0.065433264
103	0xbe23d34c	-0.15998572
104	0x3bda1d23	0.0066563054
105	0xbd24c0ac	-0.04022281
106	0xbda112f0	-0.0786494
107	0x3d8cbaa9	0.0687154
108	0x3d6220e5	0.055207152
109	0x3d8ea6ef	0.06965434
110	0xbdc19849	-0.09452874
111	0xbd32dde0	-0.043668628
112	0x3d2cb446	0.04216411
113	0x3b018c35	0.0019767408
114	0xbd95bcb9	-0.073113866
115	0x3d10e322	0.03537286
116	0x3c4ef61b	0.012631918
117	0x3dd3ab16	0.103353664
118	0x3c5e7e0c	0.013579857
119	0xbc6ce3a7	-0.014458573
120	0x3c88fc7b	0.016721955
121	0x3dcadbb3	0.099051856
122	0xbc9409d1	-0.018071087
123	0xbdc68ebe	-0.09695195
124	0xbcf78b80	-0.030217886
125	0xbd0dca1b	-0.03461657
126	0x3d979397	0.074011974
127	0xbddcd82c	-0.10783419
128	0xbd92db12	-0.071706906
129	0x3ac77ea5	0.0015220238
130	0xbc08e73f	-0.008355915
131	0x3cedeebf	0.029044507
132	0x3cf9ddda	0.030501295
133	0x3d9d7dd3	0.07690015
134	0xbdc6ba18	-0.09703463
135	0xbb988b4a	-0.0046552764
136	0xbd86a315	-0.06574074
137	0x3d7f514d	0.062333394
138	0x3cabb256	0.02095906
139	0xbdec677c	-0.115431756
140	0xbd6f9f0f	-0.0585013
141	0xbd80b138	-0.06283802
142	0xbd1555c2	-0.03645874
143	0x3cf5740e	0.029962566
144	0x3d88a71f	0.06672501
145	0x3db47814	0.088119656
146	0xbd9d5892	-0.07682909
147	0xbd25c590	-0.040471613
148	0x3d34e029	0.04415909
149	0xbda0b6da	-0.07847376
150	0x3d2b4fd6	0.041824184
151	0xbc380a0c	-0.011232864
152	0x3d997d9e	0.07494663
153	0x3b92f4d1	0.004484751
154	0xbdc48b65	-0.095969
155	0x3d9ba88d	0.07600508
156	0x3c8b94b1	0.017038675
157	0x3ceca1ee	0.028885808
158	0x3d3ef9aa	0.046624817
159	0x3da22b85	0.07918457
160	0x3da12b80	0.07869625
161	0xbd178366	-0.036990546
162	0xbd2bcb6b	-0.04194204
163	0x3d910f2f	0.07082974
164	0xbd3fb5f9	-0.046804402
165	0xbbbfc11f	-0.0058518793
166	0x3d344481	0.044010643
167	0x3cc311cc	0.023812197
168	0x3d4ef60c	0.050527617
169	0x3da12a28	0.07869369
170	0x3da0be23	0.07848766
171	0xbda4d0e1	-0.08047653
172	0xbcda03f6	-0.026613217
173	0x3b5ac4b5	0.0033381407
174	0x3d433800	0.047660828
175	0xbd6e6ee3	-0.05821122
176	0xbcf0a1ad	-0.029373968
177	0x3c3d7cf9	0.01156544
178	0xbdbab894	-0.09117237
179	0x3c112d79	0.008860939
180	0x3d13675a	0.035987236
181	0x3d88f0f7	0.066865854
182	0x3c9b08bf	0.018925069
183	0xbdbe5baa	-0.09294827
184	0xbcfef182	-0.03112102
185	0x3d9493a8	0.07254726
186	0xbc23f1bb	-0.0100063635
187	0x3bdea3b8	0.006794419
188	0x3da77bc7	0.081779055
189	0xbdb7a184	-0.089663535
190	0x3d464949	0.048409734
191	0x3c81e9d6	0.015858572
192	0xbdd69252	-0.10477127
193	0x3d9cdc5d	0.076592185
194	0xbda985ee	-0.08277498
195	0xbde295ce	-0.11063729
196	0xbcc079bf	-0.023495553
197	0xbd5ea242	-0.05435396
198	0x3b5fcddc	0.0034149801
199	0xbc3d9ad1	-0.011572556
200	0x3dae3762	0.08506657
201	0x3d69b728	0.057059437
202	0x3d586893	0.052834105
203	0xbd84ae8b	-0.06478604
204	0xbdc323cd	-0.09528313
205	0xbc73ec86	-0.014887935
206	0xbc363514	-0.011121053
207	0x3ba2f27a	0.004972753
208	0xbd841304	-0.064489394
209	0x3ba6d485	0.0050912523
210	0xbde52ada	-0.11189814
211	0x3cb90a2a	0.022587854
212	0x3c177c1f	0.009245901
213	0x3db0a2cb	0.086248
214	0x3cb948a3	0.022617644
215	0xbd26ddf9	-0.040739033
216	0xbd53d1e0	-0.051713824
217	0xbd59e19c	-0.053193673
218	0x3daaa5d0	0.083324075
219	0x3d3f0267	0.04663315
220	0x3d4e6936	0.050393306
221	0x3da3c11e	0.079958186
222	0x3d08f619	0.033437822
223	0x3d8e509d	0.069489695
224	0xbd7c7b53	-0.06164105
225	0xbd819050	-0.063263535
226	0xbd56e315	-0.052462656
227	0xbd15cca5	-0.036572117
228	0xbd1a949d	-0.037739385
229	0x3d08f8dd	0.03344046
230	0xbd180505	-0.037114162
231	0x3d2b9293	0.04188783
232	0xbd617e91	-0.055052344
233	0xbdad3c61	-0.08458782
234	0x3d940f2f	0.072294585
235	0xbd0a6895	-0.033791143
236	0x3d840bd4	0.064475685
237	0x3dabd707	0.083906226
238	0xbd958314	-0.07300392
239	0x3da25e57	0.0792815
240	0xbd8437c6	-0.064559504
241	0x3d233d8b	0.039853614
242	0x3da7843b	0.08179518
243	0x3cdb6de8	0.026785806
244	0xbd73d545	-0.05952956
245	0xbd8e445b	-0.069466315
246	0xbd9fb349	-0.07797868
247	0x3babefe1	0.0052471017
248	0xbd49ec9e	-0.04929792
249	0xbd84bbc1	-0.06481124
250	0xbd14c2af	-0.036318477
251	0x3cfed214	0.031106032
252	0xbdaf6199	-0.08563537
253	0xbd00dc30	-0.031459987
254	0xbd9d3e39	-0.07677884
255	0x3c5072b2	0.012722658

bias f4 [10]
0	0x3d9453e1	0.07242561
1	0xbd507bcf	-0.050899323
2	0xbd82c792	-0.06385721
3	0x3c8f58d6	0.017498415
4	0x3d475ad8	0.04867062
5	0x3d9bcdf0	0.07607639
6	0xbd22a24c	-0.03970556
7	0x3ccf193e	0.025280591
8	0xbced31c0	-0.028954387
9	0x3d39f1e2	0.045396693
