models/trained_model_240104_155509.pt (torch, 976677 bytes, 10 tensors)

weight f4 [32, 1, 3, 3]
000000 d7 24 a0 be e5 5a 3f bd 40 1c 23 be 5e c8 07 be
       -0.31278107 -0.046717543 -0.15928745 -0.13260028
000010 fe 3e be 3c 57 48 84 be 40 15 11 bd c1 63 a9 bd
       0.023223396 -0.2583644 -0.035420656 -0.0827098
000020 26 aa 84 3e 14 63 20 3e e8 b0 9b be 41 81 9c bd
       0.25911063 0.15662795 -0.30408406 -0.07641841
000030 5c 9b d5 bc 4e ed 6b be 4e 22 18 bc 17 92 4a be
       -0.026075058 -0.23039743 -0.009285523 -0.19782291
000040 72 a5 9d be 30 bf 99 bd 02 16 e9 3d df d1 e5 3d
       -0.30790287 -0.07507169 0.11381151 0.1122167
000050 ba 51 86 be 1d c5 91 3e cc e9 94 3e f9 cc 86 bd
       -0.26234227 0.28470698 0.29084623 -0.06582064
000060 f8 0d 90 3e f0 07 8f 3d 07 4a aa 3e 96 cf 36 be
       0.28135657 0.06983936 0.33259603 -0.17852625
000070 6c cb ba 3d 3b 17 89 be 3c 69 a4 3e 87 98 07 bc
       0.09120831 -0.26775536 0.32111537 -0.008276111
000080 26 33 98 be 7d cf 92 3e 78 c5 04 be 67 2e 0f be
       -0.29726523 0.28673926 -0.12965953 -0.13982545
000090 a5 bf 9f bd 36 68 7a 3e 57 9d 97 3e a2 b0 7c 3e
       -0.07800225 0.24453816 0.29612228 0.24676755
0000a0 95 a8 21 be 82 af 6d 3e 01 e7 84 3e df fb 1e be
       -0.15786965 0.23211482 0.25957492 -0.15525769
0000b0 4b 4d 6a 3e 59 0a 54 3e af 23 a7 3e f3 54 91 3d
       0.22881047 0.20707072 0.32644412 0.07096281
0000c0 3b 54 31 3e cd 11 b3 3e b8 78 85 be 82 ca 40 3e
       0.17317288 0.34974518 -0.26068664 0.1882725
0000d0 c7 85 41 be 03 f8 c4 bd eb 3b 31 3e 64 b0 50 3d
       -0.18898688 -0.09617617 0.17308013 0.05094947
0000e0 22 87 5f bd 1e 72 d5 bd 97 4f 9e 3e 5a a4 90 3e
       -0.054572232 -0.10422157 0.30920097 0.2825039
0000f0 bd aa 86 3e 7f 9c 31 3e 42 20 ac bd 4d 34 81 3b
       0.26302138 0.17344855 -0.0840459 0.0039430023
000100 4a cb d8 bd 92 1a bb 3c ad 2a 8e 3e ba 29 28 3d
       -0.10585649 0.022839818 0.27766934 0.04105542
000110 03 15 8a bd 66 51 ca 3d 73 60 e8 bd 79 64 94 bd
       -0.06742289 0.09878807 -0.11346521 -0.07245726
000120 ec 05 9f bc 53 e7 7e 3e 8c f1 86 3e 98 f6 34 3e
       -0.019412003 0.2489293 0.2635616 0.17672193
000130 5f db 4b 3e 92 75 55 be fb 89 c6 bd d2 02 07 be
       0.19907902 -0.20845631 -0.096942864 -0.1318467
000140 82 38 49 3e 3b 2b fb 3d 9d 65 71 3c 94 c0 e4 3d
       0.19650462 0.12264105 0.014733699 0.11169544
000150 48 ef 24 3e e7 8f 4d 3e 5a 57 5e bd 68 63 3d be
       0.16106904 0.20074426 -0.054282524 -0.18494952
000160 99 db 3e be 48 8a 13 bb 3d a6 f2 3d fb 01 7a 3e
       -0.18638457 -0.0022512842 0.11848114 0.24414818
000170 e4 af 25 be 61 cd b0 3e 8f 07 b1 3e a7 e6 73 3e
       -0.16180378 0.34531692 0.3457608 0.23818456
000180 17 84 3a 3c f7 c5 79 3e 2d e5 c2 bd 0d 73 b7 3e
       0.011384032 0.24391924 -0.09516368 0.35829964
000190 b3 38 e9 3d 5b c6 64 be 86 11 21 3e f9 d1 4d 3e
       0.11387768 -0.22341292 0.15729341 0.2009963
0001a0 5b 12 83 3e ea de 4b 3e 20 e8 88 3d 87 fd 6f be
       0.25599942 0.19909254 0.06684899 -0.23436557
0001b0 f3 4a 2b be 69 c8 1d 3e e8 e9 1f be ef 6f 1a bd
       -0.1672781 0.15408482 -0.15616572 -0.037704404
0001c0 93 40 76 3e 5a 9c 2f 3e 73 5c 32 be c6 6c a7 3e
       0.2404807 0.17149487 -0.17418079 0.32700175
0001d0 47 f1 af 3b c3 02 90 be dc 13 5b be 54 ae b6 bb
       0.0053693387 -0.28127107 -0.21394295 -0.0055749808
0001e0 a3 b6 1e 3d aa 8e 80 bd a9 db b1 bc 22 a7 0e be
       0.038748395 -0.06277211 -0.021711187 -0.13930944
0001f0 f9 57 09 be 05 3d d0 3d dd d8 aa be b6 69 c0 bd
       -0.13412465 0.101678886 -0.3336858 -0.09395163
000200 ee d7 49 3e a9 43 4c be fe 17 6f 3e 40 2c 23 3d
       0.19711277 -0.19947685 0.23348996 0.039837122
000210 11 e4 41 be ea 50 56 3d ef e7 41 3e 60 4d a6 3e
       -0.18934657 0.05232326 0.18936132 0.32480907
000220 e2 a7 18 3d c3 64 0d be 07 58 c8 bb 14 1e 1e 3e
       0.03726948 -0.13807969 -0.0061140093 0.15441161
000230 55 59 36 be 60 ec fc 3c 5a ce 98 3e d0 7b 5f 3e
       -0.17807515 0.030874431 0.29844934 0.21824574
000240 58 7a 8d 3e bd 12 0c 3c fa 7b 8c 3e 16 dc a0 3e
       0.27632403 0.008549389 0.27438337 0.31417912
000250 2a c1 17 be 04 d3 20 bc 25 19 93 3d 85 dc 1a 3d
       -0.1481978 -0.009815935 0.0718253 0.03780796
000260 37 fc 49 be 65 05 a4 3e 64 80 3f 3e 3c 43 1c 3e
       -0.19725119 0.32035366 0.18701321 0.15260023
000270 82 84 5d be 4f 28 36 3e d2 e4 4e bc df 3c 91 be
       -0.21632579 0.17788814 -0.012627797 -0.28366753
000280 1f 6b 46 3e c2 02 e6 bd e8 34 13 be 5c 2d 89 bd
       0.19376801 -0.11230995 -0.14375651 -0.06698105
000290 2f ed 96 3e b4 81 89 be 12 be ed 3d c6 85 50 be
       0.29477832 -0.26856768 0.11608519 -0.2036353
0002a0 48 57 99 be d6 41 ab be 3d 6a b6 be 2d 2e 30 3e
       -0.29949403 -0.33448666 -0.35627928 0.17205115
0002b0 82 5a 99 3e 2c d4 87 3e 7f 0e 31 be 7a 37 28 3e
       0.29951864 0.26529062 -0.17290686 0.16427413
0002c0 05 3c 37 be fa 3b 63 3e b9 bb 92 3e 93 84 dc 3d
       -0.1789399 0.22190848 0.28658846 0.10767474
0002d0 bb 4d 0d 3e e6 82 86 3e 47 10 9e 3e a7 17 2d be
       0.13799183 0.26271743 0.30871794 -0.16903554
0002e0 db 90 54 3e 8a 81 41 3e 98 8e 1f 3e f5 3d 93 3e
       0.20758383 0.18897071 0.15581739 0.28758207
0002f0 87 6a 94 3e 15 25 78 3e c9 1c 03 3e a8 c5 1a 3c
       0.28987524 0.24232896 0.1280395 0.009446539
000300 59 8c 09 bd 56 0b 7c be 12 74 ae 3c c6 70 ff 3d
       -0.03358111 -0.246137 0.021295581 0.12472682
000310 fd b1 7b be 38 d4 ab 3e 8d e2 2c be d9 5d 9f 3e
       -0.24579616 0.33560348 -0.16883297 0.31126288
000320 f1 80 14 3e 27 8d fd 3d 50 58 cc bd 3c 0b 8e bc
       0.14502312 0.12380438 -0.09977782 -0.017339341
000330 e5 31 9a be ae 8a 2c be cc 8c 37 3e e9 19 5d be
       -0.30116192 -0.16849777 0.17924803 -0.21591915
000340 e6 54 20 be e5 d7 83 bd dc 3d 9a be d9 b1 89 3e
       -0.15657386 -0.06437663 -0.3012532 0.268935
000350 8f db 5a 3e 64 48 b0 3e c5 f4 7f 3e be 99 e8 3d
       0.21372817 0.3443023 0.24995716 0.11357449
000360 e0 a2 8e be a0 dd dc 3c 50 e6 22 be a2 68 57 3e
       -0.2785864 0.026961148 -0.1590817 0.21036008
000370 db 47 4d 3e 5c 9c a9 bd 77 0e 6f be 0b 3a 8a 3e
       0.20046942 -0.08281776 -0.23345362 0.26997408
000380 49 2e 92 3d 9d 74 19 be 73 c0 d0 bd 07 cc 5f 3e
       0.071377344 -0.1498589 -0.10192957 0.21855174
000390 7d 18 86 3d fa a4 7b 3e c2 58 b5 be 89 5e b8 bd
       0.065476395 0.24574652 -0.3541928 -0.09002406
0003a0 a3 5c 46 3d 4a 29 a5 be a8 9d 97 be 1c c0 8c 3e
       0.04842819 -0.32258064 -0.2961247 0.27490318
0003b0 2c e2 86 be 6c 69 5f 3e b1 82 5d 3e 20 2b c7 3d
       -0.2634443 0.21817559 0.21631886 0.09725022
0003c0 c9 9c a9 be 4a 74 a3 bc fb eb 90 be fc 7e 9c 3e
       -0.3312743 -0.019952912 -0.2830504 0.3056563
0003d0 50 b0 2f 3e 53 18 47 3d 75 97 1b 3e 62 1b ca bc
       0.17157102 0.04860718 0.15194495 -0.02467126
0003e0 66 19 80 3e 90 3b 2e be fd fa 30 bd f8 7b 1c 3e
       0.25019377 -0.17014909 -0.04320811 0.15281665
0003f0 ca ac 3b be e1 05 48 3e 2d 24 50 be b3 2e a4 3e
       -0.18327633 0.19533493 -0.203263 0.3206688

bias f4 [32]
000000 62 44 e4 bc 99 58 61 3e 26 1c 1f be 95 f8 4b 3d
       -0.027864639 0.22006454 -0.15538082 0.049797613
000010 2b d5 47 3e 19 e1 31 3e 8d 6c 25 be ce 03 88 3e
       0.19514911 0.17371024 -0.1615469 0.26565403
000020 47 8a 8f 3e 84 e1 f2 bc 93 14 ce bc dd af 94 3e
       0.28035185 -0.02964855 -0.025156295 0.29040423
000030 7f 0b 2c bd a7 c5 75 3e 2d 34 7f be d7 ee 2e bd
       -0.04200315 0.2400118 -0.24922247 -0.042708244
000040 88 49 82 be 90 03 0f be 86 e0 16 be ca 93 49 3e
       -0.25446725 -0.13966203 -0.14734086 0.19685283
000050 4e 67 20 3e b5 04 4e 3d 99 15 ef bc bc 69 9c 3d
       0.15664408 0.050297458 -0.029185103 0.07637355
000060 cf 08 99 3e d9 35 e0 3d 37 be 48 bd f3 eb 9f 3d
       0.29889533 0.109477706 -0.049009528 0.078086756
000070 70 fe 96 be cc 00 90 3e af df 85 bd 17 c8 81 be
       -0.29490995 0.28125608 -0.06536805 -0.2534797

weight f4 [64, 32, 3, 3]
000000 72 80 59 3b c8 c8 5e 3d 99 22 5f bd 7e 08 46 3d
       0.0033188132 0.0543907 -0.054476354 0.048347943
000010 2c a3 83 3c 56 51 1a 3d da 4e 1f bd cc 85 3b bd
       0.016069017 0.037675224 -0.038893558 -0.045781896
000020 44 72 4c bd c2 4d 08 3d 89 ae 28 bc bb 7e 03 3d
       -0.04991366 0.03327728 -0.010295519 0.03210328
000030 73 75 72 bd d9 d1 74 bc b1 17 c5 3b 45 b6 b6 3a
       -0.05919404 -0.01494261 0.006014787 0.0013939819
000040 78 61 e6 bb 11 02 97 3c 8f e7 f3 bc 72 ab 23 3d
       -0.007030662 0.018433603 -0.029773502 0.039958425
000050 ff c3 8a 3d cf a5 01 bd 28 23 1a 3d 85 67 d3 3b
       0.067756645 -0.031652268 0.037631184 0.0064515495
000060 1a 92 21 bd c7 5f d1 3c 23 ca 75 bc 32 8b 07 3c
       -0.039445974 0.025558366 -0.015001806 0.008272933
000070 a7 3a 87 bd a5 71 dd 3c a3 79 48 bd 2c 9f f1 bb
       -0.06602984 0.027031729 -0.048944127 -0.007373711
000080 a0 39 29 bc 40 0d 83 bc 0e 5d 77 3d c7 2b 97 3c
       -0.01032868 -0.015997529 0.06039148 0.018453492
000090 34 40 4b 3d 20 c4 6f bb 84 84 84 3d 35 0b be 3c
       0.049621776 -0.0036585405 0.06470588 0.023198703
0000a0 16 3c aa bc a0 ba 1b 3d 17 80 1f 3d 7f 33 39 3d
       -0.020780604 0.038019776 0.038940515 0.045215126
0000b0 3c 8a 57 bd 1f 70 d4 bc 8e 4c 53 bd 28 54 9b 3d
       -0.052622065 -0.02593237 -0.05158668 0.07584411
0000c0 b3 e2 32 3d d0 88 c7 3c c9 54 2a 3d 31 d1 8a 3d
       0.04367323 0.02435723 0.041584764 0.06778181
0000d0 de cd 1f 3d da 4d 68 bb 98 16 80 3d c2 58 82 39
       0.03901469 -0.0035446794 0.062543094 0.00024861662
0000e0 cc 4f 3d 3d aa 30 77 3d da 54 82 3c 41 36 be bc
       0.04621868 0.060349144 0.015909601 -0.02321923
0000f0 a7 4d ab bc 59 ee 4c bc 05 d9 cc bc 64 3b be 3c
       -0.020911051 -0.012507998 -0.025005827 0.023221679
000100 f5 a8 8e bd d4 82 36 bd 70 66 43 3c 15 7e 46 3c
       -0.0696582 -0.04455836 0.0119262785 0.012115021
000110 88 c7 76 3d 13 4e 77 bc 40 d8 f2 bc 23 e7 2c 3c
       0.06024888 -0.015094298 -0.029644132 0.010553154
000120 26 bd 12 bd 0e cb fc 3c 3e 45 2a 3d 8a 5c 87 3b
       -0.035824917 0.030858543 0.04156994 0.0041309046
000130 ab e0 ae 3b a6 14 95 3d ab 5c b7 3c 54 59 49 3c
       0.005336841 0.07279329 0.022383055 0.012289364
000140 ae a4 57 3d 59 9a a1 bd 32 fe 30 bd 5f e5 ac bc
       0.052647285 -0.078907676 -0.04321117 -0.021105466
000150 35 d1 0e bb 85 69 15 3d ad e5 76 3d e6 3a c4 3b
       -0.0021792178 0.036477584 0.06027763 0.0059884666
000160 b2 a7 cb bb a5 0e 23 3d 7b cb 8b bc 41 16 a6 bc
       -0.006215059 0.039808888 -0.0170648 -0.020274283
000170 6b 89 a0 3d d3 07 16 3d 4d 3f 09 3d b6 d8 81 3d
       0.078387104 0.036628556 0.033507634 0.063401625
000180 ec e9 6c 3c 1c 2b 47 bd 43 bf 14 3c 50 40 bc 3c
       0.014460068 -0.048625097 0.0090788035 0.022979885
000190 98 12 30 3c e6 b0 47 3d a4 e2 81 3d d1 69 a0 3d
       0.010746621 0.048752688 0.063420564 0.07832683
0001a0 c4 12 55 3d d2 f1 42 3c d5 67 f2 bc 30 80 2a bd
       0.05201985 0.011898475 -0.029590527 -0.041626155
0001b0 75 ea 3e 3d ff 7b 46 3d 88 06 8a 3c af b7 70 3d
       0.046610314 0.048458096 0.016848817 0.058768924
0001c0 de 8c 62 3d 8e ac 84 3d 27 bc 3b bd 76 fa 96 3c
       0.055310123 0.06478225 -0.045833733 0.018429976
0001d0 f9 8d 62 bd fc 06 34 3d ce db 53 3c d5 58 0b bc
       -0.055311177 0.043951973 0.0129308235 -0.008505066
0001e0 04 dc ac 3b 80 b0 de bc a2 7b 09 bd 63 a6 bc bc
       0.0052752513 -0.027183771 -0.03356517 -0.023028558
0001f0 44 7e 86 3d 5f e9 61 3d b1 e6 e3 3c c5 d6 76 bc
       0.06567052 0.0551542 0.027819963 -0.0150658535
000200 5e 48 a2 3d 18 54 fb bb a4 2e f3 bb 7a d8 00 bd
       0.07923959 -0.007669937 -0.0074213315 -0.03145645
000210 db 2f ab bc c1 9e 77 bd 2e ce 58 3d 21 9f 86 bc
       -0.020896843 -0.060454134 0.052931003 -0.0164333
000220 39 1b c3 bc 9b 0e 3b 3d d2 ff dd 3c 97 86 09 3d
       -0.023816692 0.045668226 0.027099524 0.03357562
000230 bc 75 d6 bc 70 9b 9d 3c 47 fc cc bc a4 95 a1 bc
       -0.026179187 0.019239157 -0.025022639 -0.019724675
000240 39 7b 21 bc 2c 44 22 bd ac fb 3c 3d 40 82 27 3d
       -0.009856039 -0.039615795 0.04613845 0.0408957
000250 f5 4f ce bc b3 cd 32 3d 3f 4b 3f 3d 25 cd d0 bc
       -0.02518461 0.0436532 0.04670262 -0.025488446
000260 da 58 5c bd 75 c1 46 ba 64 6a 70 3c 84 ed 18 bc
       -0.053795673 -0.0007581928 0.014673803 -0.009333972
000270 d3 9a bc bc a9 2f 84 3d a3 00 cb 3b a7 61 cc 3b
       -0.023023045 0.06454403 0.0061951443 0.006237227
000280 79 48 89 3d 7e 41 e3 bc 77 19 c0 bc ef 05 ae 3c
       0.06703276 -0.02774119 -0.023449643 0.021243064
000290 50 2b 97 bd 1b 96 1e 3d c7 0f 3b bd 8a cd 85 3b
       -0.07381308 0.03871737 -0.045669343 0.00408334
0002a0 c9 a8 f8 bc ba 24 85 3d da f9 92 bc e2 15 44 3c
       -0.03035392 0.06501146 -0.017941404 0.011968108
0002b0 d5 1d 8c 3d 36 96 a0 bc bf 19 6a 3b de da a4 bc
       0.068416275 -0.019602876 0.0035720912 -0.020123895
0002c0 c5 34 da bc 1e 07 26 3d 3f 84 c0 bc f3 37 73 bd
       -0.02663649 0.04053413 -0.02350056 -0.05937953
0002d0 14 e5 03 bd 01 2e bd bc 70 b8 0f 3d db 8a 33 3d
       -0.032200888 -0.023093225 0.035088003 0.043833595
0002e0 30 4a 8c 3d ce 2b 55 3d 8c 02 d6 3c 2a cb 14 3d
       0.06850088 0.05204373 0.026124261 0.036326565
0002f0 49 ae dc 3c 29 3d 67 3d d6 50 12 bd ab 0b fc 3c
       0.026938574 0.05645481 -0.035721622 0.030767282
000300 f4 3f 81 3d ff 5a ac bc 16 65 f8 bc 43 48 3e bc
       0.06311026 -0.021039484 -0.030321639 -0.011613908
000310 ef 19 02 bd a4 c9 77 3d b5 48 20 3c bc 21 d7 bb
       -0.031763013 0.060495034 0.00978296 -0.0065653007
000320 85 b8 37 3c ac b2 31 bd 87 f3 72 3d d8 d9 9a 3d
       0.0112134265 -0.043383285 0.059314277 0.07561082
000330 f5 ea c1 bb bc 6d 1b 3c 74 5b 64 bc ae 3b 83 3d
       -0.0059179016 0.009486612 -0.01393782 0.06407867
000340 58 59 68 3d cf 66 9b 3d dc 7f 81 3d 1e 40 d2 bb
       0.05672583 0.075879686 0.06323215 -0.006416335
000350 3e 1b f2 bc 7b 96 2d bc c6 cd 87 bd 6b e2 3d bd
       -0.029554006 -0.010594959 -0.06631045 -0.046358507
000360 6e c5 32 3b d4 80 a4 3b 7a 24 83 bc 70 52 14 3c
       0.0027278322 0.0050202403 -0.016008604 0.009052858
000370 e8 e2 3d bc 96 ef 82 bd 38 d7 3c 3d be 3c 8a bd
       -0.011589743 -0.06393354 0.046103686 -0.06749867
000380 bc 34 95 bc 5e 14 35 3d d4 80 07 3b fc 46 56 bd
       -0.018213622 0.044208877 0.0020676153 -0.05231379
000390 e5 7a e0 bc 7c c4 f8 bc 1a 4b b6 3c 08 cc 5b 3d
       -0.02740235 -0.030367129 0.022252608 0.053661376
0003a0 10 bd f5 3c 3f 9a 2a bd 70 8c fa 3c ac 3a 4e bd
       0.029997379 -0.041651007 0.030584544 -0.050348923
0003b0 d7 96 cc 3b 62 1b db 3c 48 9a 35 bb 68 27 21 bc
       0.0062435674 0.026746456 -0.0027710367 -0.009836055
0003c0 72 08 2c 3d 1a 22 59 3d 55 b9 5a bc 74 15 dc bc
       0.04200024 0.053011037 -0.013349851 -0.026865698
0003d0 f9 a8 90 bc 27 b2 0e bd a2 2b 88 3d 00 2d d2 bc
       -0.017658697 -0.034837868 0.06648947 -0.025656223
0003e0 e1 12 88 3b 6f 7c 09 bd 12 af 3b bd 81 55 1a bb
       0.004152641 -0.033565935 -0.045821257 -0.00235495
0003f0 f7 c9 d9 bc 51 32 8e bc cf b0 0f bd 0a d3 61 3d
       -0.026585562 -0.017357977 -0.035080727 0.055132903

bias f4 [64]
000000 28 c2 5a 3c 87 e2 d5 bc da 51 cb 3c 34 ec 54 3d
       0.0133519545 -0.026108993 0.024819303 0.051983073
000010 d0 67 f5 bc 20 8e 44 3d 93 94 ab 3c f2 39 d5 bc
       -0.029956728 0.047987103 0.02094487 -0.026028607
000020 0b 9b 9f bc f8 c8 51 3b ff fa 3d 3d f1 1b cc 3c
       -0.01948311 0.0032010656 0.046381947 0.024915667
000030 dd bf 5b bd 82 2d 78 3d 17 32 00 bd 9a 9e 13 3c
       -0.053649772 0.060590275 -0.03129777 0.0090099815
000040 46 63 34 bd 16 b1 1f bd 7f 5d ce 3c 1e 57 fb 3c
       -0.044039987 -0.03898724 0.025191067 0.03068119
000050 c7 a6 59 3d 51 65 1d 3d 42 13 d3 39 eb 52 0c 3b
       0.053137567 0.0384267 0.00040259404 0.0021411728
000060 4c f6 2d bd 49 7e 5f 3c 53 79 42 bd f3 a6 97 3d
       -0.042471215 0.013640949 -0.047478985 0.0740489
000070 97 a1 21 3d 06 29 5a 3c da 7b 3b bd a4 98 19 3d
       0.039460745 0.013315445 -0.04577241 0.037499085
000080 b3 00 a6 3c 19 ec 68 bd 0b 21 55 bd 0c 48 df 3c
       0.020264005 -0.056865785 -0.052033465 0.027256034
000090 c6 0e 0f bd 4a c9 a2 bc 8f 7a 4c bd a3 a7 d1 3c
       -0.0349262 -0.019871373 -0.04992157 0.02559263
0000a0 83 a2 0b 3d 1d 1b 1e 3d 51 28 27 bc d8 19 91 3c
       0.03409053 0.038600076 -0.010202483 0.017712519
0000b0 aa 13 b3 3c 4f 8d 2d bc d3 10 84 3b a0 22 f5 3b
       0.021859962 -0.010592773 0.004030326 0.0074809343
0000c0 b3 20 5d 3d 11 7b 59 bc 38 85 5f bc 7a f3 48 3c
       0.053986263 -0.01327397 -0.013642602 0.012265081
0000d0 8b 03 49 3d 4f 3f 06 3c 53 c2 f5 bc 3c c9 19 bd
       0.049075644 0.008193805 -0.029999888 -0.037545428
0000e0 a0 89 79 3c 27 57 c9 3c 5c a3 4d 3d fe dc 05 3d
       0.015230566 0.02457769 0.05020462 0.032681458
0000f0 f9 15 44 bd f4 bd 00 3d 21 ed 1b 3d 32 62 07 bd
       -0.047872517 0.031431153 0.03806794 -0.03305263

weight f4 [128, 64, 3, 3]
000000 25 07 a2 bc b7 b2 13 3b ce 97 af bc 75 13 bf bc
       -0.019778797 0.0022536942 -0.02143469 -0.023324708
000010 c9 69 a4 bc 08 90 59 3c d7 8d e1 3c 11 1b 03 3d
       -0.020069974 0.013278969 0.027533455 0.032008234
000020 3d 67 e3 bc 4b 2f 89 3c cc 3b 4a bd 5b 72 9b bc
       -0.027759189 0.016746184 -0.049373433 -0.018975427
000030 81 53 19 3c d5 6c 8b 3c 47 a2 d0 3c e3 1d 0c bc
       0.009358288 0.017019669 0.025468005 -0.008552047
000040 4e d9 e7 3c 18 92 67 3b 70 ca c5 bb cc 90 43 bd
       0.028301861 0.0035334881 -0.0060360953 -0.04774551
000050 c3 ff 4c bd 50 b5 9a 3c 00 50 67 bc 9a 9f b1 3c
       -0.0500486 0.018885285 -0.014118195 0.02168255
000060 77 ec fc bc e0 1f a7 bc da 1d 6b 3c 4a 90 76 bd
       -0.030874474 -0.020400941 0.014350379 -0.0601962
000070 ce 03 38 bd ef f7 10 bc 6a 7e 15 bd 72 ed 24 bd
       -0.044925503 -0.0088481745 -0.03649751 -0.040265508
000080 0f a3 24 3d 1a 48 c0 3c 1a 31 95 3b 14 da 5f 3c
       0.040194567 0.02347188 0.0045529725 0.013662834
000090 b7 1d 3b bd 70 e7 11 3c fd 3b 0e bd e3 cd 9c 3c
       -0.045682635 0.008905277 -0.034725178 0.019141143
0000a0 6e b5 bd 3c 6e d4 b8 bb 8b 5b b8 3c 40 3f ee bc
       0.023157801 -0.005640558 0.022504589 -0.029082894
0000b0 ce 4a 64 bc 0d 11 91 bb 8e f2 85 ba f2 33 52 bb
       -0.01393385 -0.0044270814 -0.0010219382 -0.003207442
0000c0 bd d4 14 bc 65 ca 26 3d 73 59 26 3d dc e5 24 bc
       -0.009083924 0.040720362 0.04061265 -0.010064568
0000d0 58 fb 09 3d fa 1d 62 bc 5f 97 3a 3d 13 c7 0c bc
       0.033686966 -0.013801092 0.045554515 -0.008592385
0000e0 b8 b7 7f 3b 11 ef 65 3c 09 e5 93 ba ca 49 ba 39
       0.0039019417 0.014034049 -0.0011283468 0.00035531662
0000f0 ca d1 97 bc 07 4c 14 3c 1e d9 5b bc 04 36 55 bb
       -0.018532652 0.009051329 -0.013418464 -0.0032533417
000100 2f 44 8f 3c 13 15 91 bc 60 56 e7 3c 89 89 00 3d
       0.017488567 -0.017710244 0.028239429 0.031381164
000110 0b d5 9c 3b 91 91 5a 3b b2 25 45 3d 57 86 38 3c
       0.004786139 0.0033350924 0.048131652 0.011262498
000120 39 2b 26 bd 18 1c 1c bd d7 7f 58 bd 26 fd 35 bc
       -0.040568564 -0.03811273 -0.052856293 -0.011107719
000130 dd 5a 58 bc 76 b0 df bb 0e 90 9c 3c 11 99 00 3d
       -0.013205257 -0.0068264557 0.01911166 0.031395976
000140 39 d9 81 bc 1f 68 de 3c a3 e6 16 3c 30 36 c3 3c
       -0.01585065 0.027149258 0.0092102615 0.02382955
000150 12 2a 27 bb 36 3d 18 bd 89 8a 02 bd ec f0 01 bd
       -0.0025507254 -0.03716775 -0.0318704 -0.0317239
000160 67 e2 54 3c 8d 5c 43 3c 1d 6b 0d bd bd 92 d2 3c
       0.012993432 0.011923921 -0.03452598 0.025704736
000170 fc e9 80 3c f6 28 72 3c 99 a1 39 3d 31 68 30 3d
       0.015736572 0.014780274 0.045320127 0.043068115
000180 a3 39 ac 3a f4 dd 0c 3c dc e6 39 3d 22 c6 4d bc
       0.0013139736 0.00859784 0.04538618 -0.012559446
000190 07 17 e1 3c c1 17 8b bb 5c d4 eb b9 03 76 10 3d
       0.0274768 -0.004244775 -0.00044980913 0.035268795
0001a0 e9 e0 c4 bc 80 6c 3b 3c 51 44 f6 3c 61 12 a7 bc
       -0.024033027 0.011439443 0.030061873 -0.020394506
0001b0 36 75 da 3b 90 16 bf bc 4e da d0 ba 60 c5 04 bc
       0.0066668047 -0.023326188 -0.00159342 -0.0081036985
0001c0 b8 18 8d 3a 0c 79 60 bc 9f c6 1f bd b5 9b f8 bc
       0.0010764813 -0.013700735 -0.03900778 -0.030347684
0001d0 70 50 04 bc da a7 bd bc c8 17 36 bd 5c ff a4 3c
       -0.008075818 -0.023151327 -0.044456273 0.020141296
0001e0 1b d2 19 3c 2e 27 21 3d fc ab aa 3c 54 c9 42 bc
       0.009388472 0.039344005 0.020833962 -0.011888821
0001f0 71 71 10 3d a2 f3 2c bd 35 4b 95 bc 76 08 04 3d
       0.035264436 -0.042224534 -0.018224338 0.03223463
000200 b7 e1 74 3b 53 6a 20 bd 00 e1 4f bd 8d 2f d8 bc
       0.0037365982 -0.0391639 -0.050751686 -0.026389861
000210 39 9b 50 bc 9f 13 80 bc 0b bf 80 bc fd 43 09 bd
       -0.01273232 -0.015634356 -0.015716096 -0.033512104
000220 f7 d6 1e bd 72 a8 b7 3c 00 46 1d bd ea 84 2f bb
       -0.038779225 0.022419188 -0.038396835 -0.0026782104
000230 d2 c1 59 bb 1e e6 c4 bc 1e 60 b3 3b d9 3b 32 bc
       -0.0033227098 -0.02403551 0.0054741045 -0.010878527
000240 e8 e0 41 bd 50 54 9f 3c 83 de ec bc 69 6e ee 3b
       -0.047333628 0.019449383 -0.028914696 0.0072763455
000250 5f 92 a4 ba 78 5b 33 3d 55 3a 91 bc 8f df 07 3d
       -0.0012555829 0.043788403 -0.01772801 0.033172186
000260 b3 cd 2a 3c 3a 2b ad bb 01 81 6a 3b ed 22 77 b9
       0.010425019 -0.005284694 0.0035782459 -0.00023568766
000270 4b 04 68 3c dc 86 76 bd 98 36 18 bd e1 69 bd 3c
       0.01416118 -0.060187206 -0.03716144 0.023121776
000280 3c 67 fe bc 59 5e 83 3b ba 3e 00 bb 21 97 37 bb
       -0.031055085 0.00400905 -0.0019568638 -0.0028013664
000290 0c 99 80 ba bb d5 62 bd 9b df 18 bd 5c a2 59 bd
       -0.0009811237 -0.05537961 -0.03732262 -0.053133354
0002a0 17 e5 e3 bc 99 29 76 bc fb 0c 6c bc 6e 8c 93 3b
       -0.0278192 -0.015024566 -0.014407392 0.0045028245
0002b0 c2 86 58 3c 25 e5 ef 3b 74 55 58 bd a7 54 b8 3c
       0.0132157225 0.0073210173 -0.05281587 0.022501303
0002c0 e0 58 44 bc 18 49 c0 3c 7c 6b cb bc f3 c3 46 3c
       -0.01198408 0.023472354 -0.024831526 0.012131679
0002d0 a2 73 85 3b 08 3b 20 3c 46 1c 70 bb a8 3f c1 bc
       0.0040726224 0.009779699 -0.0036637946 -0.023589924
0002e0 24 51 f8 3a a9 9b e8 3c 7f b1 12 bd 83 8b d8 3c
       0.001894508 0.028394537 -0.035813805 0.026433712
0002f0 2d 0e 92 3c 24 20 03 3d 36 04 cc bc 86 8a e1 bc
       0.017829025 0.032013074 -0.024904352 -0.027531873
000300 8e ad 2c bc 3f 8c aa 3c 90 af 76 bc 75 f7 07 bd
       -0.010539426 0.020818828 -0.015056506 -0.033194978
000310 f2 6c 24 3d 50 b6 66 3c a2 7b 98 3c 28 9a 43 3d
       0.04014296 0.014081553 0.01861364 0.047754437
000320 ea 8e 39 bd 68 a9 81 3c 46 1f 2b 3c 84 68 da bb
       -0.04530231 0.01582785 0.010444468 -0.0066652913
000330 dc 12 b9 ba 6d e9 ed 3c 8a bf 54 3d 66 89 02 3d
       -0.001412 0.02904197 0.05194048 0.031869315
000340 7d c7 af bc 3f 45 37 3d 80 a6 06 bd 73 b3 08 3d
       -0.021457428 0.044743773 -0.03287363 0.03337426
000350 f9 79 f2 3c 76 2e 02 bd d3 ef 8f bc ba 46 4d 3d
       0.029599177 -0.03178259 -0.017570412 0.05011628
000360 25 a1 ab 3b 50 af 0a bd d7 5e 95 bc bf e2 b0 3c
       0.005237716 -0.033858597 -0.0182337 0.021592496
000370 2e 59 31 bb 5c 44 be 3b ba d4 82 bc 66 80 23 3d
       -0.0027061212 0.005806489 -0.015970577 0.039917372
000380 62 3a 36 bd 06 76 0d bb 68 40 65 bd de 62 67 bc
       -0.044489272 -0.002158524 -0.055969626 -0.014122693
000390 fc 48 80 bb cd f4 94 3b 19 55 0d bc 60 8f f0 3c
       -0.0039149504 0.004545784 -0.008626246 0.029365242
0003a0 55 79 07 3d 86 a0 c5 3c 2e dd 62 3c fa bc 16 3b
       0.033074696 0.024124395 0.013846679 0.0023000822
0003b0 b4 46 c9 3c 53 6b 21 3d fe 8a 13 bd 19 22 c2 3b
       0.024569847 0.039408993 -0.036021225 0.005924475
0003c0 33 c5 58 3c 52 92 bc ba c1 ce d4 3c 98 a4 71 bc
       0.01323061 -0.0014386869 0.025977494 -0.014748715
0003d0 e3 be be bc b3 e7 a9 3c 89 65 3d bd 83 ee 4d bc
       -0.023284381 0.020740366 -0.04623941 -0.012569073
0003e0 24 66 94 3c 09 41 d1 bc 9a 12 8c bb a3 17 dd bc
       0.01811511 -0.025543706 -0.0042746784 -0.02698881
0003f0 d2 ec 2f bd 86 ea 63 bd a9 37 01 3d d7 9a 1d bd
       -0.04295046 -0.05564358 0.031547222 -0.038477745

bias f4 [128]
000000 f9 5f eb 3b c0 5f 22 bd 27 c8 8a 3c 65 8a 00 bd
       0.0071830717 -0.039642096 0.016941143 -0.031381983
000010 ce a9 22 3d d6 a4 ac 3c 8d ee 56 3c 23 fd d8 bc
       0.03971272 0.021074694 0.013118398 -0.026487892
000020 01 52 b3 3c 2d 20 d5 3c 73 0a b1 bc 99 93 37 bd
       0.021889688 0.02601632 -0.021611428 -0.044818494
000030 69 94 29 bb 2e 2c a4 bb 1f bd 23 bb 4d 14 1d 3d
       -0.0025875813 -0.0050101494 -0.002498455 0.03834944
000040 90 c1 ae bc da 14 0d bd 3b 66 b8 bc bb 05 12 3d
       -0.021332532 -0.034443714 -0.022509685 0.035649996
000050 8f 0f c5 3b a0 aa a2 3b 76 ff 61 3b b5 04 86 bc
       0.0060138176 0.0049641877 0.0034484542 -0.016359666
000060 7b 14 fc 3c 7a ac 8d 3c e7 5d 0b 3d 88 c4 fc 3c
       0.030771485 0.017294157 0.0340251 0.030855432
000070 fb a8 b8 3c 6a 27 21 bc 19 0f c8 bc c1 91 a1 bc
       0.022541514 -0.009836057 -0.024421262 -0.019722821
000080 c4 c8 c2 bc 50 97 2f bd 4f 14 c1 bc 34 94 d2 3c
       -0.023777373 -0.042868912 -0.023569254 0.025705434
000090 5f 3b fa bc 64 26 e2 b9 43 d5 c0 3c 7b 4d 6f 3c
       -0.030545888 -0.00043134682 0.023539191 0.014605875
0000a0 17 76 e8 3c ce 86 91 bc 2f 82 e6 3c a5 4a 00 bd
       0.028376622 -0.017764475 0.028138248 -0.031321187
0000b0 1e e7 d5 bc bc 69 92 3c 2d 6d c0 3c 71 c9 dd 3c
       -0.026111182 0.017872684 0.02348956 0.027073594
0000c0 94 1d 13 bc 07 d2 92 bb a5 30 a2 3c 94 14 0d bc
       -0.00897922 -0.0044806036 0.019798586 -0.008610863
0000d0 a6 03 fb bc 0c c0 c9 39 a1 01 82 bb 20 a3 d1 3b
       -0.030641388 0.00038480794 -0.0039674793 0.00639762
0000e0 54 03 b8 bb 13 58 11 3c 97 66 ce 3c c5 b1 96 3c
       -0.005615631 0.008871096 0.025195403 0.018395314
0000f0 1a 56 ae ba b7 95 3e 3c 28 7a 22 3b ed c5 a1 3c
       -0.0013300807 0.0116323745 0.002479205 0.019747699
000100 c7 3e 17 3c 1d 71 98 3c 6a e1 c8 3b 37 9b 0d 3d
       0.009231276 0.018608624 0.006130387 0.034571853
000110 d9 e1 89 bc 4f db 27 3d 73 bf fa ba 2f b3 23 bd
       -0.016831325 0.040980633 -0.0019130543 -0.039965805
000120 0f 41 48 3d f1 93 1a 3d 7d 90 ee bb 90 15 05 3c
       0.04889017 0.037738744 -0.007280408 0.008122817
000130 a7 95 81 bc 88 00 0a 3d 80 7c 9b bb 58 58 05 bd
       -0.01581843 0.033691913 -0.004745066 -0.032554954
000140 03 78 81 bc 92 3e 30 3d 43 19 7b 3c 70 32 ec bc
       -0.015804296 0.04302842 0.015325847 -0.028832644
000150 57 bf 22 3c 2d bd fa 3b d9 1e dd 3c d2 93 db bc
       0.009933314 0.007651946 0.026992248 -0.026803885
000160 cc bc 38 bd 8e 2c 22 bd 9f f2 a9 bc 5d e1 13 bc
       -0.045101926 -0.039593272 -0.020745574 -0.009025899
000170 2e 63 a8 bc f8 d0 46 b9 49 1c 17 3d 39 e0 44 3b
       -0.020555105 -0.00018960598 0.03689221 0.0030040874
000180 e6 31 0b bd 02 89 ac bc d6 36 07 bd c0 b0 a9 bc
       -0.033983134 -0.021061424 -0.03301128 -0.020714164
000190 3c 16 1f bd 5d ea 6a bc c3 96 c5 3c 31 87 b2 3c
       -0.038839564 -0.014338103 0.02411974 0.02179298
0001a0 ea ac 8d bc 8e 65 3e 3d 49 6e 0a 3b 02 e6 06 bd
       -0.017294366 0.04648357 0.0021122864 -0.032934196
0001b0 f1 a5 5e 3c ac 75 d5 bc 11 98 3e 3d 3a 7a c7 bb
       0.013589368 -0.026057087 0.04653174 -0.0060875686
0001c0 a0 30 9e 3c 83 f5 ee 3c b0 86 d7 3c 6a 54 c3 3c
       0.019310296 0.029169803 0.026309341 0.023843963
0001d0 97 9d a3 bc 3b 4f 1e 3c 58 8c e4 3c a7 f7 e9 bc
       -0.019972606 0.009662445 0.027898952 -0.028560473
0001e0 04 1a 97 bc da b5 92 3c 96 e7 57 bc 3d 2a 5b 3c
       -0.018445022 0.01790898 -0.013177773 0.01337677
0001f0 d6 37 08 3d 94 15 6b bc 25 b2 25 bc c0 41 88 3b
       0.033256374 -0.014348406 -0.010113274 0.0041582286

weight f4 [128, 1152]
000000 9b dc f3 3b 5b 86 83 bb bb c2 c5 3c fc e0 04 bd
       0.0074420697 -0.004013819 0.024140706 -0.032441124
000010 6e f9 88 3c 49 87 a6 b9 d8 de 03 3d a8 f7 29 bc
       0.0167205 -0.00031762783 0.032194942 -0.010373987
000020 5f ae e8 3c 24 82 2b ba 46 ff 3d bc f5 3b a8 3c
       0.02840346 -0.0006542525 -0.011596506 0.020536402
000030 a9 75 9d 3c 2d d6 22 bc 3f 41 41 3b c3 59 3a 3c
       0.019221144 -0.009938759 0.0029488353 0.01137394
000040 e7 fb ff 3c 75 f9 3e 3c 4d cb 71 3c cb 11 92 bc
       0.031248046 0.011656155 0.014757943 -0.01783075
000050 a0 32 d7 bc af b0 0a 3c ba 89 ee 3c 12 e3 50 3c
       -0.026269257 0.008464976 0.029118408 0.01274945
000060 bf b3 6f 3b 4c 7e 0e ba 90 14 b1 bc a1 87 e7 3c
       0.0036575643 -0.000543569 -0.02161625 0.028262915
000070 cf a5 91 bb e3 dc 11 3d 5e 6e 3f bb de 09 a0 bb
       -0.0044448148 0.035611045 -0.002921007 -0.0048839888
000080 e3 61 ed 3c fb a1 2c bc 02 03 12 3d 16 60 c3 3c
       0.02897734 -0.010536666 0.0356474 0.023849528
000090 97 d7 30 bc 3c ae 9a bc 16 87 72 3c 2f 19 09 3d
       -0.010793588 -0.01888191 0.014802715 0.033471283
0000a0 1b a2 ce bc 31 c6 8a bc 3f bf 83 3b e0 da fa 3c
       -0.025223782 -0.016940208 0.004020601 0.030621946
0000b0 c8 72 f9 3c 7c a5 35 bc 8a 26 c6 bc 5e 1e d2 3b
       0.03045024 -0.011086818 -0.024188299 0.0064123115
0000c0 ae ec 91 bc ee a8 d3 bc 2a c7 8e 3c 49 b2 7e bc
       -0.017813053 -0.025837388 0.017428953 -0.015545436
0000d0 e6 0a ed 3c 54 f3 f2 3a 64 ba d3 bc 95 8a c1 3c
       0.02893586 0.0018535652 -0.025845714 0.023625651
0000e0 d9 67 89 bc 87 fd 57 39 ff ae 11 3a 55 98 03 3d
       -0.016773151 0.00020598444 0.00055573875 0.032127697
0000f0 63 68 a7 bc e7 97 85 3c b6 70 cc bb a7 c9 7c bb
       -0.020435518 0.016307784 -0.006239022 -0.0038572343
000100 b9 cd a3 bc 7c 9b 92 bb 82 be 5f bc aa 7e 04 3d
       -0.019995557 -0.0044741016 -0.01365626 0.03234736
000110 c4 8c 87 3c 54 8e ba 3c a2 03 b8 3a b2 0c a0 3b
       0.016546614 0.022772945 0.0014039169 0.004884326
000120 db 6d e6 bc 6a 56 e2 3c df 6b a9 3c e8 9d af bc
       -0.028128555 0.027629096 0.02068132 -0.0214376
000130 81 d4 fc 3c 45 e5 46 bc 6a 74 c9 3c e0 d8 47 3c
       0.030863049 -0.012139623 0.024591643 0.012197703
000140 a5 6d e5 3c c5 60 7b bc ba d9 01 bd 2d 44 c8 3c
       0.028006384 -0.015342896 -0.03170178 0.024446571
000150 48 16 06 bd 06 92 27 3d 34 29 1f bc 6f ac 23 bb
       -0.032736093 0.040910743 -0.009714413 -0.0024974605
000160 ed 54 e7 3c f1 2a 4c 3c d2 88 98 bc 2a 1a 82 bc
       0.028238738 0.01246141 -0.018619929 -0.015881617
000170 2c 0e 88 3b 54 60 18 bc 43 cc 64 3c 57 44 56 bc
       0.00415208 -0.00930031 0.013964715 -0.013077817
000180 03 10 3b bc e6 51 ba 3c 06 ed 0a bd 93 7a d8 3b
       -0.011417392 0.02274413 -0.03391745 0.006606409
000190 bd 5c 0c 3c 87 f9 2c bc d0 67 e0 bc 1b 0e 12 3c
       0.008567032 -0.010557539 -0.027393252 0.008914496
0001a0 eb cd 02 3d bd 99 ce ba 5c 8d ff bc 1d 50 15 bc
       0.03193466 -0.001576237 -0.031195335 -0.009113339
0001b0 58 84 f3 3c 5a 1f b3 3c 7f a3 d7 3c ea fb b9 3c
       0.029726192 0.021865536 0.026323078 0.02270313
0001c0 c2 15 8b bc bf 0f b8 3c a5 80 01 bc 5b 31 90 3c
       -0.016978148 0.022468446 -0.007904206 0.01760166
0001d0 b4 29 3b 3c 07 27 97 bc 24 2e b8 3c 2b eb d8 3b
       0.011423517 -0.018451227 0.022482939 0.006619831
0001e0 ef 3d a8 3c 24 f7 86 bc b7 0b c1 bb af d2 c7 bc
       0.020537345 -0.016475268 -0.005891289 -0.024392454
0001f0 a5 ad b0 3c a6 51 8e bc 15 df fe 3c 8b a4 fa bb
       0.021567175 -0.017372917 0.031112233 -0.0076490096
000200 64 ab fd 3c 8f a9 bd bc cb 5e fd 3c c9 34 48 3b
       0.030965514 -0.02315214 0.03092899 0.003054904
000210 70 0a e7 3b d4 b4 ad ba af 54 de 3b 45 07 24 3c
       0.007050805 -0.0013252744 0.0067849974 0.010011499
000220 c8 c9 9c 3b 38 59 e0 3c 96 05 f4 bc d6 cb 96 3c
       0.0047847964 0.027386293 -0.02978782 0.018407743
000230 5b 47 2f 3c 60 12 16 3d f4 43 48 ba 21 20 b0 3c
       0.010698165 0.036638618 -0.00076395203 0.021499695
000240 00 03 81 3c 48 c7 dc 3c 1e e4 be 3b d0 6e cf 3c
       0.0157485 0.026950493 0.0058255335 0.025321394
000250 53 6b 9e 3b 61 7a 22 3b 2c 7a be bc 2d 69 60 3c
       0.0048345714 0.0024792182 -0.023251615 0.013696951
000260 0b df 30 bc ec d2 0c bd f5 c9 65 ba 4a fb 0f b9
       -0.010795365 -0.03438084 -0.00087657507 -0.00013731155
000270 05 d8 06 bd 32 15 90 3c 22 1e e1 bc 89 96 d5 bc
       -0.032920856 0.017588232 -0.027480189 -0.026072757
000280 a9 2c cb bb d0 56 13 bc f5 41 43 3b fb dd 1f 3c
       -0.0062003923 -0.008992866 0.0029793952 0.009757514
000290 09 cc 49 3c 51 e0 09 bd b8 6b 48 3c 20 6d 27 3c
       0.012316712 -0.03366119 0.012232713 0.0102188885
0002a0 c3 99 d7 3a 15 ee 75 bc 80 65 87 3c 3f 3f 21 bd
       0.0016449023 -0.015010376 0.016527891 -0.039366957
0002b0 9d 9c 15 3d 1d 44 91 bc a8 f2 77 3c 76 be 32 3c
       0.03652631 -0.017732674 0.015133537 0.010909667
0002c0 ce d7 e6 bc f8 ff e7 3c a4 37 a7 ba 62 d3 3b 38
       -0.028179076 0.028320298 -0.0012757671 4.478114e-05
0002d0 70 b9 0a bd d6 de f5 3c 8d e6 31 3a e2 a7 f2 bc
       -0.033868253 0.030013483 0.0006786369 -0.029621068
0002e0 ce 4c d6 3a d3 8f 0c 3d 4e 55 dc 3b e0 17 07 3d
       0.0016349794 0.03431685 0.0067240363 0.032981753
0002f0 1e 7a 5f 3b 19 0a 02 3d 51 2e 07 3d 98 dc 47 bc
       0.0034099887 0.03174791 0.033003155 -0.01219859
000300 b7 14 18 bd 43 79 01 3c 6d 4b 8d bc 89 dd b0 bb
       -0.03712913 0.007902446 -0.01724788 -0.005397503
000310 dc 54 0b bc 7b 67 c3 bb 7a 73 02 bb 29 b2 a9 bc
       -0.008504119 -0.0059632636 -0.0019905255 -0.020714836
000320 0d d8 32 3b a6 db c5 bc b2 f4 a2 3b a0 78 dd 3c
       0.002728942 -0.024152588 0.0049730176 0.027035058
000330 61 7c 8a 3c 06 be dc bb 7d 47 67 bb f4 7b 49 bc
       0.016905012 -0.0067365197 -0.0035290413 -0.012297619
000340 28 44 04 3c ab 43 d1 3c f8 c2 37 3d 49 54 ca ba
       0.00807289 0.025544962 0.04486367 -0.0015436496
000350 94 94 73 3c 60 51 0b 3a e6 c3 11 3c 0b 8d a0 bc
       0.014866967 0.0005314555 0.0088968035 -0.019598505
000360 dd ed 8f bb 85 54 e0 3c db 96 de 3c 84 55 fc 3a
       -0.004392369 0.027384052 0.027171543 0.001925156
000370 4e 11 aa 3a a0 73 74 3c 4c 5e 01 3c e0 ed a0 3c
       0.0012975128 0.014920145 0.007896017 0.019644678
000380 d6 95 9c 3c 34 95 79 bc 13 1c f8 3c 8d 3a 97 3c
       0.019114416 -0.015233327 0.030286824 0.018460536
000390 44 71 7c 3c 0c 3d cc b9 c4 a8 98 bc 30 e3 0c 3d
       0.015407864 -0.00038955396 -0.018635161 0.03439635
0003a0 05 51 f4 3c 23 7e be 3c 11 e2 ab 3c b3 39 b7 bc
       0.02982379 0.023253506 0.02098182 -0.02236638
0003b0 18 d5 1a 3d 2f 1a 9c bb f0 b0 a4 3c cb 14 22 bc
       0.03780088 -0.0047638635 0.020103902 -0.009892653
0003c0 b7 59 16 3d 0e bb 68 3c 0b 56 6a ba ed 6c 14 3d
       0.036706652 0.014204754 -0.0008939213 0.036236692
0003d0 f4 44 1e 3c 76 58 20 bc 5e 04 f2 bc 16 f7 cb 3c
       0.009659994 -0.009786716 -0.029543098 0.024898093
0003e0 4f 0c f6 3b d3 b8 b3 bb 94 e1 bd 3c de 67 e7 bc
       0.0075087915 -0.0054846792 0.023178853 -0.02824777
0003f0 c0 ac af 3a ab 96 07 3d ba 47 2f 3c 07 9e e9 3c
       0.0013402924 0.033102673 0.010698253 0.028517736

bias f4 [128]
000000 0d fe cf bb 44 bb 69 bb 63 9d 47 bc 7e 9b 82 3c
       -0.006347424 -0.0035664598 -0.01218352 0.015943285
000010 79 4e 69 3c 0a 96 e3 3c 26 5a 8c 3c 1f 69 dd 3c
       0.014239901 0.027781505 0.01713283 0.027027665
000020 87 5c 07 3d 3e 11 79 3c 0b 11 bc bc a8 08 2a 3b
       0.033047225 0.015201865 -0.022957345 0.00259451
000030 ef 06 3d bc df 03 7f bc 9e a2 17 bb b1 a1 07 3b
       -0.011537298 -0.015564888 -0.00231377 0.002069574
000040 06 c8 b7 3c 16 13 b8 3c 9e 6d 8c 3b 5c 27 33 bc
       0.022434246 0.022470038 0.0042855283 -0.010934677
000050 28 5f 4a 3c fe b0 97 3c b5 93 05 bc af de 3a bc
       0.012351789 0.018517014 -0.008152892 -0.011405631
000060 2a cb 16 bc 0c de b4 3b 17 05 be bc 2e b5 07 bc
       -0.0092037115 0.005519634 -0.023195786 -0.008282943
000070 94 27 19 3c 1c c5 97 3c 19 da 6d bc 38 f4 50 3c
       0.009347815 0.018526606 -0.014517331 0.012753539
000080 a6 ba bf 3c 95 a5 cf 3c a6 3e e1 bc 86 ba 99 3c
       0.02340443 0.02534751 -0.027495693 0.0187657
000090 01 5d 9f bc 63 b9 13 3c b0 17 c6 bc 52 8d b3 3c
       -0.019453527 0.009016368 -0.024181217 0.021917973
0000a0 e8 40 9c 3c 10 06 32 3c 97 21 a2 bc 0a 24 08 bd
       0.019073918 0.010865703 -0.019791408 -0.033237495
0000b0 4b 2c 49 bb a6 8a 01 bd 0f 05 99 bc db ce 03 3c
       -0.0030696567 -0.031626366 -0.01867917 0.008044924
0000c0 b7 ef 01 bc 38 33 31 bb c5 25 bb 3c 80 78 5f 3c
       -0.007930688 -0.0027038585 0.022845158 0.013639569
0000d0 a4 ef 46 bc 34 71 77 3a 78 7d c5 3c 8e f8 52 3c
       -0.012142096 0.0009439171 0.02410768 0.012876643
0000e0 d2 4a 15 3b 4a 7a e8 3b b4 36 c6 3c 80 a6 cf bc
       0.0022780192 0.007094656 0.024196006 -0.025347948
0000f0 51 0b 48 bb c0 89 2f bc a0 ff b2 bc 32 c1 83 3c
       -0.0030524323 -0.0107139945 -0.021850407 0.016083334
000100 30 33 b3 ba b9 7e cf bc d8 0e 5d bc 6a af 51 3c
       -0.0013671871 -0.02532898 -0.013492309 0.01279817
000110 d8 d1 27 3a 68 4f 46 b8 2a e7 8c 3c 35 5b e9 3c
       0.00064018136 -4.728083e-05 0.017200071 0.028485874
000120 32 d7 da bc 7c f0 e4 3c 66 f9 79 bc d5 d0 9d 3b
       -0.026713941 0.027946703 -0.015257215 0.0048161545
000130 82 be 0d b9 b4 8b 0b 3c 7b d6 e6 3c 3b 3f 99 bc
       -0.00013517778 0.008517195 0.028178444 -0.018706908
000140 92 55 1a bc 17 55 7e 3b f0 d1 8c 3c 0b f4 64 3b
       -0.009419816 0.0038808042 0.01718995 0.00349355
000150 cb ae ea 3c 8b f6 97 bb bd c6 c7 bc d9 c8 c2 3c
       0.0286478 -0.0046375445 -0.024386758 0.023777412
000160 eb dc e2 3c d2 52 30 bc d7 c7 c1 3c a4 0b 17 bc
       0.027693233 -0.010761933 0.023654861 -0.009219084
000170 9b 0c 8d bc ba 69 06 bd 10 09 d6 bb 22 19 14 bb
       -0.017217925 -0.032815672 -0.006531842 -0.0022597988
000180 7d 27 ad bc f4 c8 20 bc 90 e5 a7 ba be 9f 0a bd
       -0.021136994 -0.009813536 -0.0012809504 -0.03384375
000190 83 d7 c6 bc f6 d8 79 bc 37 9e ab bb 1f da c8 3c
       -0.024272686 -0.015249481 -0.0052373665 0.02451807
0001a0 1f cf ef 3c 4b 2f de bc ac e3 cf bc b1 fc b9 3c
       0.029273568 -0.02712216 -0.025377117 0.0227035
0001b0 2c df 04 bd cb e3 ae bb dc 3e 76 3b df b2 98 3c
       -0.032439396 -0.0053372136 0.0037574088 0.01863998
0001c0 13 c0 fa 3b b7 0d e2 bb 45 9d 63 bb 1c eb 69 3c
       0.0076522916 -0.0068986076 -0.003473119 0.014277246
0001d0 8a d0 da bc 5a f0 e4 3a e8 11 e1 bc e1 5a 10 3c
       -0.026710767 0.001746665 -0.027474359 0.00881073
0001e0 1d fa cd 3b 65 a8 75 bc 15 99 9a 3c 1e e4 d6 3c
       0.0062859193 -0.014993762 0.018871823 0.026231822
0001f0 c9 a7 94 3c ea 8f b6 3c a2 6a 2f bc b6 51 b9 bc
       0.018146412 0.02228542 -0.010706576 -0.02262197

weight f4 [10, 128]
000000 9c c0 94 bb c2 11 54 3d e1 a0 81 bd 44 46 6c 3d
       -0.0045395624 0.051774748 -0.06329513 0.057684198
000010 66 e0 5b 3d c6 85 65 3d 8c dc 8d 3d fc dd 27 3d
       0.0536808 0.05603578 0.069268316 0.040983185
000020 5f 1b c8 bd 73 a2 28 3c 18 5e df bc ea 5b 3c 3c
       -0.097708456 0.010292637 -0.027266547 0.011496523
000030 05 66 ba bd b3 93 62 3d d2 36 95 3c a6 fb 99 bc
       -0.0910149 0.05531664 0.018214617 -0.018796753
000040 31 56 87 3d b9 82 b0 3d ba c5 71 3d 5c a2 23 3d
       0.066082366 0.08618683 0.059026457 0.03994976
000050 fe 76 01 bd 88 4e 75 bd 40 87 01 3d 66 83 88 3d
       -0.03160762 -0.059889346 0.031623125 0.06665687
000060 f1 39 86 3d 9d 92 a6 bd ce e9 82 3d 76 b5 04 bd
       0.0655402 -0.08133433 0.06392251 -0.032399617
000070 be 0a 49 bc b7 af 44 3d e4 78 66 bd 5c 10 9e bd
       -0.012270628 0.048019137 -0.056267634 -0.07717964
000080 ef 9a 8e bd 2b 7e a0 bd 86 a7 88 3d 0b bb 5c bd
       -0.06963145 -0.07836565 0.066725776 -0.053889316
000090 0d 5b 2d bd 5f 70 bc bd 38 ec 60 3d 38 6c ad 3d
       -0.04232316 -0.092011206 0.054912776 0.08467907
0000a0 3e e7 00 3d fd 54 b0 bd cc 78 8b bd ff d4 92 3d
       0.03147053 -0.0860996 -0.068101496 0.07169532
0000b0 8c f9 b9 bc 4d e7 2d 3b 24 3d 5d 3d a2 a8 63 bd
       -0.022702001 0.002653557 0.054013386 -0.055580743
0000c0 97 76 95 3d 55 c1 a1 3d d0 24 b7 3d 62 4b a8 3d
       0.0729801 0.07898203 0.08942568 0.08217503
0000d0 7f 84 3d 3d 2c 18 5a 3d 8b 8c 09 3d 84 28 58 3d
       0.046268936 0.05324571 0.033581298 0.052773014
0000e0 40 56 f9 3c 0c 43 83 bc 5c 01 b7 bc d5 32 16 3c
       0.030436635 -0.016023181 -0.022339515 0.009167393
0000f0 61 23 01 bd 43 c2 a4 bd f3 cc 0c bd a9 3b a8 3b
       -0.03152788 -0.08044865 -0.034375142 0.005134065
000100 dd b9 a1 3d 8a 2d 37 3d 2a 17 1f 3c 87 33 b7 bd
       0.07896779 0.044721164 0.009710113 -0.08945375
000110 ed b5 fc 3b fe 95 9d 3d cc 54 82 3b ae bc 16 bd
       0.007712117 0.07694624 0.0039773937 -0.036801033
000120 b6 c8 35 bc 0e 71 ac 3b 65 c7 a8 39 e3 f0 9c 3d
       -0.0110952165 0.0052625006 0.00032192018 0.07663133
000130 02 1d 49 3d 2f d0 b8 bd 28 ef 9c 3d 60 a3 57 3d
       0.04909993 -0.09024083 0.07662803 0.05264604
000140 8c 10 3b 3d 74 41 82 bd 4d 42 42 3d af 9c 85 3d
       0.045670077 -0.063601404 0.04742651 0.06524026
000150 83 ca 83 3d ae c5 56 bd 47 f3 2e bd c4 eb 52 3d
       0.064351104 -0.052434616 -0.042712476 0.051494375
000160 99 3a 6c bd 6d 1a 3c bb 37 90 2f bd 71 0e 1a bd
       -0.05767307 -0.0028702274 -0.042862143 -0.03761143
000170 62 49 be bc 29 05 90 3c a5 44 9e bc ee 62 9e 3d
       -0.023228351 0.017580586 -0.019319842 0.07733713
000180 74 9c 80 bd 78 60 a0 bd df 16 2c bc a7 64 9f 3d
       -0.06279841 -0.078309 -0.0105035 0.0778287
000190 26 58 9f 3d 6a 84 0e bd d4 10 96 3d e6 86 d2 3b
       0.07780485 -0.03479425 0.073274285 0.0064247726
0001a0 04 49 ad 3d 95 dd 51 3d 56 77 ea 3b 99 b7 ad 3d
       0.08461192 0.051236708 0.0071553392 0.08482284
0001b0 e7 77 af bd 06 49 ad 3d c6 3b 05 bc 03 ad 48 3d
       -0.085677914 0.08461194 -0.008131927 0.04899312
0001c0 0b e2 54 3d 79 7b e7 bb 79 3d 9f 3d c2 ab 54 bd
       0.051973384 -0.0070642796 0.07775397 -0.051921614
0001d0 e2 62 57 3d 55 16 01 bc 67 08 ba bd 12 fb ca bd
       0.052584536 -0.0078788595 -0.09083634 -0.09911169
0001e0 3d 1b 19 bc 11 d3 fc 3c b6 f3 b9 bd 21 75 54 bd
       -0.009344873 0.030862363 -0.09079687 -0.051869515
0001f0 9c 10 98 bd 45 04 94 bd 76 19 a7 bc a1 47 7b 3c
       -0.07425043 -0.07227377 -0.020397883 0.015336902
000200 77 d5 96 3d 0c bc 5e 3d d5 22 e3 bc ef 48 85 bd
       0.07364934 0.054378554 -0.02772657 -0.065080516
000210 df ae c6 bd 30 bf 00 bc af 94 8a bd 7a 99 54 bd
       -0.09701323 -0.007858083 -0.067666404 -0.05190418
000220 58 0a 90 3d 8a 17 25 bc 36 f6 ca bb 6b 9e 97 bd
       0.07033223 -0.010076413 -0.0061939014 -0.07403263
000230 a5 80 74 bd 47 fb 94 bd fe 97 24 3d 66 24 49 3d
       -0.059692997 -0.0727449 0.040184014 0.049106978
000240 fb 7b 8c bd 67 96 3e bd a7 95 61 3c ff 06 53 3d
       -0.06859585 -0.046530154 0.01376859 0.051520344
000250 a6 a3 8c ba 55 51 8e bd 00 d5 35 bd fe 98 97 bd
       -0.0010729923 -0.069491066 -0.044392586 -0.07402228
000260 0a fe a2 3d 15 00 06 3d 6d b3 a2 bd 4f 5c b0 bd
       0.0795861 0.032714922 -0.07944379 -0.086113565
000270 34 f7 a5 3d c9 9f 4e 3d 14 28 8a bd 7b 9c a9 3b
       0.08103791 0.05044535 -0.067459255 0.0051761246
000280 e4 5a bd 3c 30 a0 c9 bc db af 30 3d 00 57 82 bc
       0.02311463 -0.024612516 0.04313646 -0.015910625
000290 51 40 93 bd 95 9c 18 3d f4 55 30 3a 3c fc bb 3d
       -0.07190002 0.037258703 0.0006726675 0.09178969
0002a0 b7 c1 1e bd 0b 20 13 3d f3 32 24 ba be b0 7d 3d
       -0.03875896 0.03591923 -0.00062636955 0.061936133
0002b0 d7 34 42 3d 9b 9c 6c 3a 5d 8e 9a bd 81 06 dc bc
       0.047413673 0.00090260216 -0.07546685 -0.02685857
0002c0 21 a5 26 bd 5b 4c f0 bc cc 52 8d bd 6f c5 13 bd
       -0.040684823 -0.029333284 -0.06900558 -0.03607696
0002d0 86 be 7a 3d 9a b5 e3 3b 48 12 8f bd 87 72 81 3d
       0.061216854 0.006949139 -0.06985909 0.063206725
0002e0 0f 8e 59 bd 11 9d b2 3d 79 98 9d bd 06 69 30 bb
       -0.053113993 0.08721364 -0.076950975 -0.0026918068
0002f0 b3 90 bd 3b d9 e4 2c 3d a9 c2 9e 3d 4e a7 14 3d
       0.0057850718 0.042210434 0.07751972 0.036292367
000300 75 7d 8a bd 0d 0a 24 3d 47 c0 54 3c 4e e2 bb 3d
       -0.0676221 0.040048648 0.012985296 0.091740236
000310 bc bb 19 3c 13 5e a0 3d 98 a0 92 3d 58 d1 af 3c
       0.009383138 0.07830443 0.07159537 0.021462128
000320 63 7f 6c bd 83 72 c7 bd 8b 4d 24 3d af 2e 8b bd
       -0.057738673 -0.09738638 0.040113013 -0.067960136
000330 31 74 53 bd 54 ee 5f 3d 4b b9 8c bd 24 a8 a3 bd
       -0.05162448 0.054670647 -0.06871279 -0.07991055
000340 35 99 02 bd 9a 66 91 3d 82 b1 83 3d 95 9a c1 3c
       -0.03188439 0.07099648 0.06430341 0.02363328
000350 68 f5 24 3c b0 18 4f 3c 41 73 a0 3d fc 11 83 bc
       0.010068275 0.012640163 0.07834483 -0.015999787
000360 96 9c c3 3c da 7e 84 bc 31 9b 28 bd ea 08 46 bd
       0.023878377 -0.016173769 -0.041163627 -0.048348345
000370 d9 2c 70 b9 ef 5c 73 bd 4f ed 11 bd 5f 38 be bd
       -0.0002290489 -0.0594148 -0.035626706 -0.09288096
000380 53 f3 4d 3d a0 3c a3 3d 6e b3 9c 3d 35 50 83 3d
       0.05028088 0.07970548 0.07651411 0.06411783
000390 ab 07 f0 3c 17 be 02 3d 9b 1d a9 bd 55 be a2 bd
       0.029300531 0.031919565 -0.082576 -0.07946459
0003a0 05 18 93 3d f4 65 ec bc 8d d5 b5 bd 5d a6 4c 3d
       0.07182316 -0.028857209 -0.08878622 0.049963344
0003b0 ba 29 f6 bc 00 45 76 3d 35 28 92 bd 6f e1 0c bd
       -0.030049194 0.060124397 -0.07136575 -0.034394678
0003c0 0c ad 87 bd c1 70 84 3d af a4 90 3d 90 1c 4f 3d
       -0.06624803 0.064668186 0.07062661 0.05056435
0003d0 32 31 6a bc 92 4e 42 3d e8 97 74 bd 0d 12 27 3d
       -0.014293956 0.04743821 -0.05971518 0.0407887
0003e0 cf 2d 89 bd 13 2a 63 bd 23 47 d4 3b 69 32 8b bd
       -0.066981904 -0.055460047 0.0064782067 -0.06796724
0003f0 5e 07 3d bd 70 51 8d 3d 16 6d 8e 3d 1f 0a 10 bd
       -0.046149604 0.069002986 0.069544 -0.035165902

bias f4 [10]
000000 81 08 96 bd f9 8e ff 3c 41 10 44 bd ac ba ed bc
       -0.07325841 0.031196104 -0.047867063 -0.029019676
000010 e7 ee a7 3d bd 0c 50 3d 60 a5 8f 3d d0 c5 b6 bc
       0.08199864 0.0507934 0.07013965 -0.022311121
000020 e8 b7 c3 bb 89 0f e5 3c
       -0.005972851 0.02796151
